examples/python/BCKP_model-doom.pth (torch, 110391 bytes, 8 tensors)

weight f4 [8, 1, 6, 6]
00000000: 81d7 1fbe a904 08be a1a7 65bd 2fbb 56be
00000010: f164 54be f2b5 a83e db82 13bf 6428 e7be
00000020: d284 1ebf 44c6 f3be 654d 18bf d863 babe
00000030: 7553 8cbd 7719 143e b562 a4bd 8bc3 be3d
00000040: 49be 603e 3c04 8ebd f443 163f ebde 603f
00000050: 1bed 523f 052e 773f 31d3 5e3f 2ecf e03e
00000060: 3d13 493f da7b 763f 3366 3d3f ac85 803f
00000070: 8e5e 583f 6915 d53e 0335 af3e a856 d43e
00000080: 66a0 ef3e 7ace 0c3f 3751 623e b284 f7bd
00000090: 0569 123e da42 863d ce30 84bd e268 b93d
000000a0: 7ccc 23be 919c 083e 7466 6f3d 568d d33d
000000b0: 53b6 c0bd 4bf9 a8bd 4e40 ef3d 9037 513d
000000c0: 904b 4e3d 680f b7bc 54da 723d 389b c13c
000000d0: a7a8 13be 401c 7ebd 44bb 09bd 6ece ddbd
000000e0: 23e4 b4bd c468 1dbe 2395 e8bd c349 bcbd
000000f0: d0d1 3a3d 6043 84bb ccae 02be 2732 1dbe
00000100: 7294 bc3d 58f7 e73c e6b9 57bd a053 05bd
00000110: dc10 283d b0a3 44bc 1c8d 673d d65e c7bd
00000120: 0bad 2bba b214 8e3f 1e3d 4f3f 85c4 a83f
00000130: 1413 883f 3f75 0d3f d0ec a8bd 4baa 943e
00000140: 51d2 193d 4d2f 8d3f fc54 d63e 8747 50bf
00000150: 0ea4 c9be 0e10 503d fe88 b23e bf0e b53f
00000160: 03e1 6b3f e60f b2be c129 573f 08d3 be3f
00000170: 2d40 f13f 61b5 e93f 6f29 e63f 071c 8e3e
00000180: e3fc 0640 a90b 0d40 85a2 2440 93ad 2440
00000190: 5ddb 0940 2b82 d43f 5e4a 29be d1e2 283e
000001a0: 6029 683f 50e0 153f f4b0 ec3e bbaf 32be
000001b0: 4055 dbbc e8e6 ecbc 4c4c 1cbe c0f5 0abe
000001c0: 4019 5b3d 0755 04be 6af9 f93d bb44 a7bd
000001d0: c02b 60bc 42df b23d 9079 6b3d b830 fabd
000001e0: a3dc fbbd de4a 0fbe 409d a7bd e05c b63b
000001f0: 0f25 1c3e 327d de3d e7ae 14be 1ef7 14be
00000200: 061a 0dbe 2404 693d e6a8 a33d 9a39 c43d
00000210: 32d5 9e3d 552c 103e 68da 0dbe d73c 03be
00000220: 2a1d 05be 38db a2bd cab4 e23d 642c 673d
00000230: 76dc 80bd f82d f33c 1644 8dbd 564a ce3d
00000240: 62c0 08be 7f45 29be c2c9 fc3d 544f 7a3d
00000250: a4ef 6a3d a758 04be e085 b13b e446 0ebd
00000260: f2f0 d73d a00d 90bd f719 0fbe c22a 19be
00000270: 861d 6bbd a21c db3d 3a38 c33d 36a1 aabd
00000280: 0b23 bbbd a034 de3b ec9c 2f3d a32c 1f3e
00000290: e0f3 8c3c 82d3 1abe b8d0 c33c 8674 e7bd
000002a0: 60e7 e23b ce6e 9abd 20cd e53b 263d 35bd
000002b0: 0047 64bd 6083 e93c d8dd fdbd c8df bebd
000002c0: 7007 573d f2db cc3d 926e 04be 72ac d53d
000002d0: 703e fd3d bd16 f8bd ac57 f7bd 12ed aa3d
000002e0: 0afe ff3d cd9b 373d d146 82bc 0080 19be
000002f0: 53b1 1dbe 8304 b4bd 02eb e6bc 545b 66bc
00000300: 1d02 f7bd 27c2 bcbd 7ec8 4a3d dec9 c73c
00000310: fe15 9ebd 02f4 0cbe f76d d03d 284e 873d
00000320: 0dca 143e f127 033e ef44 203e 3ec9 b3bd
00000330: 9336 1c3d ab2e e7bd 3b00 a63d 5fd4 893d
00000340: 7fd3 0fbe 0aa7 ac3d 8ea4 24be c6a4 0abe
00000350: aa9f a83d 57ce 24be 0d1e fcbd f5bc a6bd
00000360: 526b 1b3e b9e9 9d3d ce11 3dbd b211 ecbb
00000370: 3a48 6dbe d777 f1bd f99e 8b3d 7c9c 2e3e
00000380: 698f e7bd 7f5a 42be 6aae eebd c4d2 e33c
00000390: 8b1c 033e 7c5e 67bd e55a 39be 675d 3fbe
000003a0: 7b62 6a3d 73f7 b0bd 95c8 883e faec 713e
000003b0: 20fd 24be 5c9b 9b3d 1fc9 093e 1482 19bd
000003c0: d755 8d3e 64dd 463e 9cf8 733d 75c7 08be
000003d0: 6d08 8abc bfb0 0bbe 51f2 573e efd6 c33c
000003e0: 932f 263d bd2c 463e 3e7d 1f3e f734 063e
000003f0: 371b c2bd 78c8 ad3d bbc4 babd 4309 c33d
-0.15609552 -0.13283028 -0.056068067 -0.20969842 -0.20741631 0.32951313 -0.57621545 -0.45148003
-0.6192142 -0.47612202 -0.59493095 -0.364043 -0.06851856 0.14462839 -0.08026639 0.093146406
0.21947588 -0.069344014 0.5869744 0.87840146 0.82393044 0.96554595 0.87041 0.43908066
0.7854498 0.9628273 0.7398407 1.0040793 0.8451928 0.41617897 0.34220132 0.41472363
0.46802062 0.5500256 0.22101294 -0.120858565 0.14297874 0.0655572 -0.06454621 0.09053208
-0.15995973 0.13340975 0.058447316 0.10329692 -0.094097756 -0.08250674 0.11682187 0.05107838
0.05036503 -0.022346213 0.059290245 0.023633584 -0.14419805 -0.06203866 -0.033625856 -0.10830389
-0.08832576 -0.15371996 -0.113565706 -0.091937564 0.04561025 -0.004036352 -0.12761992 -0.15351163
0.09208001 0.028316185 -0.05266752 -0.032550454 0.041031703 -0.012001917 0.056531057 -0.097348854
-0.0006548918 1.1100066 0.8095263 1.3184973 1.0630822 0.5525703 -0.082482934 0.29036173
0.03755409 1.103006 0.41861713 -0.8135914 -0.39382976 0.05079656 0.34870142 1.4145125
0.92140216 -0.34777755 0.84048086 1.4908152 1.884771 1.8258477 1.7981395 0.27755758
2.109185 2.2038367 2.5724194 2.5730941 2.1540139 1.6602224 -0.16532275 0.16492774
0.90688133 0.585454 0.46228755 -0.17449848 -0.026774049 -0.028918698 -0.1526348 -0.13570309
0.053490877 -0.1292306 0.12205775 -0.08167406 -0.013682306 0.08733989 0.057488978 -0.122163236
-0.122979425 -0.13993403 -0.0818429 0.005565271 0.15248512 0.10863723 -0.14519845 -0.14547393
-0.13779458 0.056888714 0.07991199 0.09581299 0.077555075 0.14079411 -0.13852847 -0.12816177
-0.12999406 -0.07951969 0.11069639 0.05643882 -0.062920496 0.029685006 -0.06897752 0.10072772
-0.13354638 -0.16530417 0.1234317 0.06111081 0.057357445 -0.12924443 0.0054175705 -0.034735575
0.105440035 -0.07033849 -0.13974749 -0.14957717 -0.057401203 0.10698821 0.09532209 -0.0833153
-0.09137543 0.0067811757 0.04287426 0.15544371 0.017206132 -0.15119746 0.023903236 -0.11301522
0.0069245547 -0.075406656 0.007012978 -0.04424777 -0.055731773 0.028505027 -0.12395829 -0.09320027
0.052497327 0.10002889 -0.12932804 0.10433282 0.12365425 -0.12113712 -0.12077269 0.08345999
0.12499626 0.044826318 -0.015902909 -0.14990234 -0.15399675 -0.08789923 -0.028188232 -0.01405986
-0.1206095 -0.09216719 0.04950761 0.02438825 -0.077190384 -0.13764957 0.10177224 0.06606704
0.14530201 0.12808205 0.15651296 -0.08778618 0.038137984 -0.11288198 0.08105513 0.0672996
-0.14045523 0.08430298 -0.16078398 -0.13539419 0.082335785 -0.16094337 -0.12310419 -0.081415094
0.15177658 0.07710595 -0.046159558 -0.007204258 -0.23172083 -0.11790436 0.06817431 0.17051882
-0.1130665 -0.18979834 -0.116543606 0.027810462 0.12803857 -0.05648659 -0.1810108 -0.18687974
0.057222825 -0.08640947 0.26715532 0.23625556 -0.16112185 0.07597992 0.13455628 -0.037477568
0.27604553 0.19420391 0.059563264 -0.13357337 -0.01684972 -0.13641642 0.2108853 0.0239062
0.040572714 0.19353004 0.1557512 0.13106142 -0.09477847 0.08485502 -0.091195546 0.09523251

bias f4 [8]
00000000: 3ba6 a4bd f836 13be 449e 81c0 70c5 25be
00000010: 3c41 5bbd c8a7 f93c 7a6f 25bd 4b02 1bbd
-0.080395184 -0.14376438 -4.0505695 -0.16188598 -0.05352901 0.030475512 -0.040389515 -0.037843984

weight f4 [8, 8, 3, 3]
00000000: 8548 23bc 803c 35bc 2965 bcbd be74 d6bd
00000010: d3fc 533d 792a babd 8466 0b3d 3416 cfbc
00000020: 021c 06bd 3a79 d4bd 6eb4 5c3d 5254 cdbd
00000030: 9dff a03d b02e cdbc 503a d2bc 88b2 babc
00000040: 84fb bebd 3e1d 143d c29e 9a3d 1c69 a53c
00000050: 5102 613d b03e b9bd 987b efbd 6795 6c3b
00000060: 74b4 c6bd 3238 41bd bf6a 913c d091 18bd
00000070: 007f 34ba 4ee9 1e3d b687 263d 70a4 6ebc
00000080: f809 aebc 3d79 a33d dd15 9d3d 25d9 b33d
00000090: 07e2 cc3d 82db 3abd 14f3 a83c 2aa8 123d
000000a0: 49da 893d cc07 a93c a3f5 b53d c207 2cbd
000000b0: 5f1c adbd 4441 853c 04ed b43c 399f b4bd
000000c0: 0354 c2bd 5d5e 70bd 4418 943c 8960 d7bd
000000d0: 357a da3d 4e4a 85bd 3d31 6c3d 6fae 9cbd
000000e0: ec92 a43c 078d 513d 793c 84bd e044 a5bc
000000f0: 9664 313d b72f b4bd c8f8 283c 9991 9e3d
00000100: 7a7d 4f3c efe6 a53d 160e 99bd 21a3 b8bd
00000110: eafd 0a3c dd1d 64bd efdc 3cbd 1e83 dbbd
00000120: c76c 02bd c270 febd 464c 663d 8397 cf3d
00000130: cf5a b1bc b570 4dbd 584e ab3d 1b80 15be
00000140: b605 923d 9173 c33d 60aa 23bc 69e1 8e3d
00000150: 3d57 a6bd 85e3 cc3d e50f a13d 0228 383d
00000160: ad5d 80bd ff83 edbd eeb2 793d 7f50 63be
00000170: 0125 f33c 3785 783e 76cf 0bbd d5b0 cc3d
00000180: 1d4c 623e 5202 18be 2cea 18bd c87a a7bd
00000190: 0e89 92bd 9cde abbd a07f 54bc 7134 be3d
000001a0: 28f2 febc ae68 093d 2708 cc3d e8ea fdbc
000001b0: eaaf e1bd a8d6 6fbd 6094 2fbc 1510 e03d
000001c0: 1797 c63d f4a5 803c 6dd7 d83d edf6 9d3d
000001d0: df70 d93d 247e 803d 73a7 7d3d d283 bebc
000001e0: 5459 0cbd 8b5e afbb 55fa ae3d 2a32 acbd
000001f0: 8529 cc3d b8e5 50bd b50e 1a3d 6c6e 503d
00000200: abde fabc baaa 1e3d 37d8 adbc 026c e7bd
00000210: a02f 37bd f07f b33c fb07 8abd 2c8a 8c3d
00000220: 43d2 3d3d d12f bc3d 1efb 1c3c e9b3 bb3d
00000230: 6728 383d adba ccbd 1904 22bd 76b1 713c
00000240: 7593 22bd 25e7 8fbd 0c96 4b3e 6310 f7bd
00000250: c8cd d13c 9c3d c13d 1d52 38bd 8178 633c
00000260: 5c62 9a3d f7c0 e03d 751c bebd 18be d7bd
00000270: 58a5 9abc 20e2 1f3b c4d0 8b3c dfec cfbd
00000280: 7d77 d2bd f718 cebd 24e0 90be f178 7dbe
00000290: b569 ff3e 7c7a b9be 04cf f339 7cb9 023f
000002a0: 801c 4cbe 32e7 2fbd 7a0a 9b3e 97ce ddbd
000002b0: 9eac 0c3d 1fc9 e63d 4cd2 b13c 0688 403d
000002c0: 0238 3d3d d473 afbd 907d cabd 360f 213d
000002d0: b452 963c 4dfb e1bd 1ba3 cb3d 5d45 8a3d
000002e0: a3d1 e2bd 69c7 c13d ee25 a6bd 64fd ab3c
000002f0: c04c a73b 83ca 52bd 6ecb 683c 911a b23b
00000300: 7bd3 5c3c b613 a3bd 61e9 acbc 343f c1bd
00000310: 9409 a5bc aa5d 92bd e159 dfbd 0b57 e6bd
00000320: 57ae 853d 7107 d1bc 9a81 39bc e98f 473d
00000330: e9ff 073d 7de5 9bbd 2ead b1bd 48ec 2fbd
00000340: c632 e63d ad95 bc3b ef07 053c 7b31 a6bd
00000350: 877a 43bd c0f1 94bd aa34 6cbd 5c8b ea3d
00000360: 1c17 103f 305f 783e e365 01be b6a4 043f
00000370: 8e83 06be 7a50 18bf f54a 4f3e 5510 333e
00000380: 9dba 1b3e aa7b 093d 39cf 903d 9b70 8c3d
00000390: e214 edbd 9cc6 adbd f914 b33d aafb 563d
000003a0: 3f3e 70bd 082f 0abd 33ed a43f 1f06 d93e
000003b0: b96e b2be 9f3c cf3f e6ee d4bd d425 fdbf
000003c0: 9e16 833f 6807 81be e994 a5bf 055d b43d
000003d0: 98fc f1bc 0032 36b9 9667 63bd 82dd 2abd
000003e0: c903 c83d 80b1 6dbc 5dc6 b03d 1083 b0bd
000003f0: 53f3 cb3d 88a6 bfbd 1e0c 39bd 705c cfbd
-0.0099660205 -0.011061788 -0.09198982 -0.104714856 0.051754784 -0.09090132 0.034033313 -0.025279142
-0.032741554 -0.10374685 0.05388301 -0.100258484 0.07861254 -0.025046676 -0.025662571 -0.022790208
-0.093253165 0.0361607 0.07549812 0.020191722 0.05493385 -0.0904516 -0.116934955 0.0036099793
-0.097023875 -0.047172733 0.017751096 -0.037248433 -0.00068853796 0.038796715 0.040656768 -0.014565572
-0.021244988 0.07982109 0.07670186 0.087816514 0.10004049 -0.045619495 0.020623721 0.035804905
0.06731088 0.0206336 0.08884742 -0.041999586 -0.08452677 0.016266473 0.022085674 -0.08819432
-0.0948868 -0.05868374 0.018077977 -0.105164595 0.106678404 -0.06508313 0.057664145 -0.07650458
0.020089589 0.051159885 -0.06456847 -0.020174444 0.043308817 -0.087981634 0.01031322 0.07742614
0.012664193 0.08100688 -0.0747339 -0.09015489 0.008483389 -0.055692542 -0.046109136 -0.10718368
-0.03184202 -0.124238506 0.056225084 0.101363204 -0.021649746 -0.050156314 0.08364552 -0.1459965
0.071299955 0.09543527 -0.009989351 0.06976587 -0.08122108 0.100043334 0.0786436 0.04496003
-0.06267867 -0.11597442 0.060961656 -0.22198676 0.02968073 0.24269567 -0.034133397 0.099946655
0.22099347 -0.14844635 -0.0373327 -0.081777155 -0.07155047 -0.08392069 -0.012969881 0.09287346
-0.031121328 0.033547096 0.099624924 -0.030995801 -0.11019881 -0.05855432 -0.010716528 0.109405674
0.09696787 0.015704133 0.10587964 0.07713113 0.106172316 0.062740594 0.06192727 -0.023256216
-0.034264877 -0.0053518466 0.08543841 -0.084080055 0.09968857 -0.051000327 0.037611682 0.050886557
-0.030623754 0.038737036 -0.021221263 -0.11299898 -0.044723153 0.021911591 -0.067398034 0.06862292
0.0463431 0.09188808 0.009581355 0.091651745 0.044960406 -0.09996543 -0.03955469 0.014751783
-0.039691407 -0.07026509 0.19881457 -0.120636724 0.02561082 0.09435579 -0.045000184 0.013883711
0.07538292 0.10974305 -0.092827715 -0.105343044 -0.01887767 0.0024396256 0.01706732 -0.101526015
-0.10276697 -0.100633554 -0.28296006 -0.24753167 0.49885336 -0.3622626 0.0004650281 0.51064277
-0.19932747 -0.042945094 0.3028143 -0.108304195 0.034344308 0.112688296 0.021706723 0.047004722
0.04619599 -0.08567014 -0.098872304 0.039321147 0.018349983 -0.1103426 0.09943219 0.06751511
-0.11075141 0.094618626 -0.08112703 0.02099485 0.005105585 -0.05146266 0.014208658 0.005435296
0.013478155 -0.07962744 -0.021107377 -0.09435883 -0.020146169 -0.07146771 -0.10905815 -0.11247071
0.06527393 -0.025516244 -0.011322403 0.048721228 0.03320304 -0.07612131 -0.086756095 -0.042949945
0.11240153 0.0057551474 0.008119567 -0.081149064 -0.047724273 -0.07272673 -0.057667412 0.11452362
0.5628526 0.24255061 -0.12636523 0.5181383 -0.13136122 -0.594978 0.20243438 0.17486699
0.15207906 0.0335652 0.070707746 0.06857415 -0.11576249 -0.08485147 0.087442346 0.0524861
-0.058653113 -0.03373626 1.2884887 0.42387483 -0.348501 1.6190375 -0.10397129 -1.9777169
1.0241277 -0.25200963 -1.2936069 0.088068046 -0.029539391 -0.00017375499 -0.05551871 -0.041715153
0.09766347 -0.014507651 0.08631585 -0.08618748 0.0995852 -0.09357935 -0.04517757 -0.10125053

bias f4 [8]
00000000: 7676 143d 9a07 e4bd 1504 adbd 4599 87bc
00000010: c20f 003d d0ec e83d 61e6 44bb 277c 5bbe
0.036245786 -0.111342624 -0.08448044 -0.016552577 0.031265028 0.113732934 -0.0030044543 -0.21434079

weight f4 [128, 192]
00000000: 20fe 813c 742d 5b3d f018 b6bc 30f7 88bb
00000010: 3ad5 113d 86c3 f8bc fdf9 813c 69e0 27bc
00000020: 8d1a 1cbb acff 8ebd 8ec9 7ebd ba6e 36bd
00000030: 5791 92bd 7c13 c4bc d6e2 2ebd 2031 cabc
00000040: f09e 8e3c d521 573d 79e1 14bd 17e8 903c
00000050: 9de3 1dbd 6b5e 5dbd 1a76 873d 1ae7 55bd
00000060: affa d23c 7c1f 233d 5244 5f3c 7b57 74bd
00000070: bdcd 64bd fa80 a23b efd0 93bc d33c 723d
00000080: 8a24 7fbd 3415 39bd e359 7bbc b1f9 0f3d
00000090: ada2 553b e11a 553d 90a5 5b3c 54e5 323d
000000a0: 926b 8a3c 7490 4abd 597e 173b 7518 463d
000000b0: d0b4 02bd c360 503d 1061 06bd 3d84 483d
000000c0: eb77 513b 5d80 9fbd fdd5 823c 9e30 87bc
000000d0: 2519 a6bc a04d 3a3d fad0 e23c 9c25 6bbd
000000e0: 1d59 883c 46f3 d1bb 62b1 093d 6562 6fbd
000000f0: bd9a c5bc 961e 213d fe28 2ebd 3124 abbb
00000100: de48 8c3d 12d6 36bd 041e 20bd 0adb 7c3c
00000110: 29a0 9e3b be38 793b 6f16 933d 29ca 4fbd
00000120: e7b1 0fbc e1d2 b33c 4f33 c93c 0337 74bc
00000130: 035b 2fbd e67e b33c 7b0e 51bd 6170 d63d
00000140: b610 c83d a6d7 773d e479 fa3c 2083 4d3d
00000150: 836f 64bc 0f78 903d 4227 ba3c db90 24bd
00000160: ed24 843d 309e 993d 181e f43b 393f a93d
00000170: 0e6a 023d 94d5 df3d b51b 2abd ab4d e63c
00000180: b3a1 9f3d 022d c1bc 1b0b 743b 2cdd 233d
00000190: 4bc3 0fbd cabc 5bbd 4bf3 33bd a103 8f3d
000001a0: 229f f2bb cdf0 93bc 5bb4 843d e426 9e3d
000001b0: 65f5 82bd e933 2dbd 380b 833c cbec 26bd
000001c0: 9b03 de3c 66de 15bd b2c6 833d 629e 8cbd
000001d0: 79eb 033c 873a 6d3d 4f3b e7bc 2647 a2bd
000001e0: 12c9 b5bc 34f7 263d f2b7 ddbc d916 d03d
000001f0: bd69 603d b31a 763d fff5 1e3d 2524 cc3d
00000200: 5ad4 163e dc36 9ebe 4add 623d 3829 53bd
00000210: 2ba0 673d 3eb6 853d 2683 b73d a262 71bd
00000220: 5ba6 e2bb 0a9b 19bd 0aa5 91bd 585a 483c
00000230: ecf7 993d b4e3 c73b e55b 5ebd 8c6b b43d
00000240: 7877 1a3d ba15 8abd 45f2 2bbd e283 a53b
00000250: d6b5 9abd 4450 c93c 0d38 f93c ba85 6f3d
00000260: ef1c da37 aea6 3f3d 595b 90bd 1716 3e3d
00000270: ec87 403d f015 833d d464 a8bb da41 8fbd
00000280: dd26 0fbd fad7 bd3c 3069 2b3c c798 823d
00000290: ed62 6f3d c7cf 69bc 821a 5e3c 208b 2d3d
000002a0: 15fd 893d ee00 9a3d 2f32 a6bc ef80 31be
000002b0: d24d acbd fd51 003e 07d1 b23e b03b c8bd
000002c0: 3cb4 683c 6bc4 46be c9dd b4bd 629e 18be
000002d0: 6aa1 dd3b 413b 753e e0a7 073e 51f7 113e
000002e0: 5e81 213d 208e e03c 869b 223e 93f6 b63d
000002f0: 202d 9ebd 7834 9abe 71f1 d7bd 2fe6 8cbc
00000300: 304a ab3b d029 0abc c06f b73a 3e75 cebc
00000310: 5655 20bd c0ae f2bc 92e5 903d ae6b c43c
00000320: e31e 91bc 26d8 dfbc 417a 593c e242 773c
00000330: 822c 173d 94ee d53c c00d 9fbc 0821 90bc
00000340: 2eb6 8cbc 38ea 80bd 6061 ca3c e0cf acbb
00000350: c498 1cbd 484a 1cbd 09d9 783d 7124 5abd
00000360: 9b3a 3b3d 0c1e 89bd 4f6d 9aba f06a 8e3c
00000370: 9b8a 4bbd fcbf 8e3d c228 39bd 1d4f 573d
00000380: baea 023d 994c 343d 3a51 833d d817 78bd
00000390: d1b0 843d ef77 543c 252b 5ebd a6fc dcbc
000003a0: a389 23bd 8c57 ffbc 31d8 233d 975c 893d
000003b0: 8f33 eabb 59d1 59bd a660 743c d531 583d
000003c0: bd34 353c 01ee 7fbc dd4f f4bc 96bb 7b3d
000003d0: 107c 1c3d 5e7f 27bc 0a63 20bd 90a8 543d
000003e0: 489f 183d 246e e0bc ac18 7e3d f2db 3d3d
000003f0: 0155 a03b 5127 e03a 85b7 8e3d 8abd 813d
0.015868247 0.053510144 -0.022228688 -0.0041798577 0.03560374 -0.03036667 0.015866274 -0.010246375
-0.0023819536 -0.06982359 -0.062203936 -0.04453919 -0.071566276 -0.023935072 -0.042696796 -0.024681628
0.017409772 0.0525225 -0.03634784 0.017688794 -0.038547147 -0.054045122 0.06614323 -0.05222235
0.0257543 0.039824948 0.013627129 -0.05965374 -0.05586027 0.004959223 -0.018043963 0.059140038
-0.062290706 -0.045186237 -0.015341255 0.035150234 0.0032598183 0.052027587 0.013406172 0.043675736
0.016896997 -0.049454167 0.002311608 0.048363168 -0.031910717 0.05087353 -0.03280741 0.048954237
0.0031962346 -0.07788155 0.015971178 -0.016502675 -0.020275662 0.045484185 0.027687538 -0.057408914
0.016644055 -0.0064071743 0.03361643 -0.058443446 -0.024121637 0.03933581 -0.042519562 -0.00522282
0.06849836 -0.044637747 -0.039091125 0.015433082 0.00484087 0.0038028206 0.07182013 -0.050729904
-0.008770443 0.02195114 0.024560599 -0.014905694 -0.042811405 0.021911096 -0.0510392 0.10470653
0.09768812 0.060508393 0.0305757 0.05017388 -0.013942602 0.07054149 0.022723798 -0.040177207
0.064523555 0.07500875 0.0074498765 0.08264012 0.031839423 0.10929409 -0.04153033 0.028113207
0.077945136 -0.023581032 0.0037238065 0.040005848 -0.035098355 -0.05364684 -0.043933194 0.06983114
-0.007404224 -0.018059159 0.064797126 0.077222615 -0.063944615 -0.042285834 0.01599656 -0.040753167
0.027101329 -0.03658905 0.064343825 -0.068661466 0.0080517465 0.057917144 -0.028226523 -0.07923727
-0.022190604 0.040763095 -0.027065251 0.10160608 0.05478834 0.060084056 0.03880882 0.099678315
0.14729443 -0.3090123 0.05538682 -0.05155298 0.056549232 0.065289006 0.089605615 -0.058931954
-0.006916804 -0.037501372 -0.07111557 0.012228571 0.075179905 0.0061001424 -0.054286856 0.088095754
0.03771159 -0.06742425 -0.041979093 0.005051122 -0.07554214 0.024574406 0.030422235 0.05847714
2.6001098e-05 0.046789818 -0.07048673 0.046407785 0.047004625 0.064006686 -0.005138973 -0.06994982
-0.034949172 0.023174275 0.01046209 0.06376796 0.058443952 -0.014270729 0.013556125 0.042369008
0.06737725 0.075197086 -0.020287601 -0.1733434 -0.084132805 0.12531276 0.349251 -0.097770095
0.0142031275 -0.19410865 -0.08831365 -0.14904168 0.006763627 0.23948385 0.13247633 0.142545
0.039430015 0.02741152 0.1587964 0.08933749 -0.07723451 -0.30118155 -0.10544098 -0.017199604
0.0052273497 -0.00843282 0.0013995096 -0.02520239 -0.039143883 -0.029624343 0.07075037 0.023977127
-0.017714923 -0.027324747 0.0132737765 0.01509163 0.03690768 0.02611474 -0.019415736 -0.017593876
-0.017176714 -0.06294674 0.024704635 -0.005273804 -0.038231626 -0.038156778 0.060753856 -0.05325741
0.045710187 -0.06695184 -0.0011781844 0.017384976 -0.04969273 0.06970212 -0.045204885 0.052565683
0.031962134 0.04401836 0.06411977 -0.060569614 0.064790376 0.0129680475 -0.054240365 -0.02697594
-0.039926182 -0.031169675 0.040001098 0.06707113 -0.0071472595 -0.053178165 0.014915621 0.0527819
0.011059937 -0.015620709 -0.029823238 0.061458193 0.038204253 -0.010223238 -0.03915695 0.051918566
0.037261277 -0.02739627 0.062035248 0.046352334 0.0048929458 0.0017101561 0.06968597 0.0633498

bias f4 [128]
00000000: dd04 14bc d94b cc3c fa52 fabc 50ba d3bc
00000010: dd9d 893d 33f0 d23d c753 39bd c0b7 71bc
00000020: 3bb2 103d 1f56 2f3d a9a4 c73d 58b1 2c3d
00000030: a92b 973c af9b 18bd f698 093d ba3c 773d
00000040: a310 a23d e453 08bd a8a7 76bc 8af1 abbc
00000050: 967b a53d 65a9 683c 5ea1 993d 9f5f ae3d
00000060: 6f6b 493c 2f7d 2bbc 69a6 993d d8cd 42bd
00000070: 5829 403d c7d6 833d 1e35 47bd 5fc1 8bbd
00000080: 7318 093d 19a5 023d ec88 c33c a869 a2bc
00000090: c984 17bd 5886 373d 2e7b babc b82a be3c
000000a0: b621 b3bd 1ea0 91bc f52f ac3c 9719 3bbd
000000b0: 0a29 8ebc 6117 67bd 8203 003b db79 82bd
000000c0: 65c5 e0bd 0e0e 9fbc c03a 0fbd f144 993c
000000d0: 65e7 d83d d09b bf3d 5ad2 c0bb 46d6 66bd
000000e0: 930d d73c 33d7 a03d 892d 65bd 3942 cabb
000000f0: b70e c4bc f274 123d a3c1 e63c cda5 0cbc
00000100: 0c44 4ebd 666d 1fbc d861 2bbd 6e15 07bd
00000110: cfd2 ae3c 0f6e 93bc b18d ea3d d21c b63d
00000120: 342a f0bc 0aff cd3c e8d0 3c3c 655a a73d
00000130: 3467 a23b 9ebf 823d c445 bebc 6dcc 48bd
00000140: 3e4c 8f3d a836 bfbc c67c 24bc 1468 583d
00000150: 5e58 463d e29f cdbc 4acb 7a3c 54d0 2cbd
00000160: c438 edbc 1007 793d 3fb9 b63d 6ad7 303d
00000170: 3040 af3d 4b75 61bd aedc 683d 8e08 70ba
00000180: 2c61 9ebc 04f8 e33a fc86 93bd 47e0 5e3d
00000190: a73f cfbc bea7 89bd c52a 4b3d 10ce 39bc
000001a0: c875 55bc 5f24 64bc a5af 4dbd c09e 2abc
000001b0: ab12 573d 49e0 3f3c ef70 1a3d 7312 4e3d
000001c0: ecf2 1dbc b10a 33bb ca1c 863d cc90 1e3d
000001d0: 12c4 393d 8eb1 65bd 6512 1a3b b4ec e2ba
000001e0: e4e5 e83b 6382 603d 47e9 643d df93 af3d
000001f0: 7991 283d 68ab b9ba 6c8f bcbc 11d9 c3bc
-0.009034363 0.02493851 -0.030557144 -0.025845677 0.06719563 0.102997206 -0.045245912 -0.014753282
0.035326224 0.04280674 0.09748203 0.042161316 0.018453436 -0.037257846 0.03359314 0.060360648
0.079133295 -0.03328313 -0.015054621 -0.020989198 0.08080213 0.014200543 0.075014815 0.08514332
0.012293681 -0.010466858 0.07502443 -0.04755959 0.04691443 0.0643745 -0.04863464 -0.06823992
0.033470582 0.03189573 0.023869 -0.019825771 -0.03699187 0.044805855 -0.022763815 0.02321373
-0.08746664 -0.017776545 0.021018961 -0.0456787 -0.017353553 -0.05641878 0.001953334 -0.06370898
-0.1097515 -0.019415881 -0.034968138 0.018709632 0.1059101 0.09355891 -0.005884451 -0.05635669
0.02625159 0.07853546 -0.05595163 -0.006172445 -0.023932798 0.03575606 0.028168505 -0.008584452
-0.050357863 -0.009730672 -0.041841358 -0.03297942 0.021340756 -0.017996816 0.11452807 0.08892216
-0.029316999 0.025146026 0.0115244165 0.08171538 0.0049561504 0.06384204 -0.023226626 -0.04902308
0.06996964 -0.023341492 -0.010039514 0.05283363 0.048424117 -0.025100652 0.015307257 -0.042190865
-0.028957732 0.06079775 0.08922052 0.043174185 0.08557165 -0.0550435 0.05685108 -0.0009156548
-0.019333445 0.001739264 -0.072034806 0.054413106 -0.025298906 -0.067214474 0.049601335 -0.011340633
-0.0130285695 -0.013924687 -0.050216336 -0.0104138255 0.052508038 0.011711189 0.037705358 0.050310563
-0.009640437 -0.0027319605 0.0654846 0.038712308 0.045353003 -0.056077532 0.00235095 -0.0017312975
0.007107483 0.054811846 0.055886533 0.08573126 0.04115436 -0.0014165463 -0.023017608 -0.023907216

weight f4 [8, 128]
00000000: 4716 09be 09fd b23c c4c7 6b3d 8a51 6d3e
00000010: aee1 38be 01b9 15bf d8ff 83be 4dca abbd
00000020: 4e8c e5bd 08ab 963d ff05 d8be 1a4b 1cbe
00000030: ade6 9f3e e934 79bd 62b2 963e c830 61bd
00000040: 2fdc 02bf ba0b 613d 59bc 90be 5118 183e
00000050: a1ee aa3e f2b1 adbe 30a5 d73e bec8 263f
00000060: 02b9 383d 52f3 4cbe 42c4 a0be f158 a73e
00000070: fe8e 67be 2a3c bcbd ee88 55bd b53d acbd
00000080: 7aac 363d 258f 6e3d 0c35 cc3c 303e afbe
00000090: ce59 dcbe 631c 50be 8da1 2ebf e226 5cbd
000000a0: 2c5c c3be 641a b93c f481 043e ccbe 1abd
000000b0: 9685 00bd 07f8 013e d02f 15be 3943 bb3d
000000c0: c254 2fbf 3aad ca3e ccd4 e33c a8f3 6fbd
000000d0: 628b e1be f72d dfbe ed62 cfbe b821 283e
000000e0: 118e 543d 0eb3 9a3e dded 48bc 3f54 593e
000000f0: 0d23 073e 1481 aebe d480 d5bb b836 8cbd
00000100: cb07 923e d4a7 6dbd dd13 40be 368f 823d
00000110: 819b dfbe 9e54 f03e 84c6 d43e 76df 05bf
00000120: 6df8 57bd b853 a6be 97a8 e1bd 709c 0abf
00000130: f2ac 33bd 8ac6 b3be c42b 6fbe a97c a9be
00000140: f2c7 69be 1529 103e 7a9e 4fbd 3622 f0bc
00000150: 1312 eebd fe5e 79bd 9d84 6cbd d826 183f
00000160: a897 75bc 3bea 2bbe f1ec 1b3f 8e7b 363d
00000170: f3ea e43e c3b2 a0bd 7171 28be 107e a6bd
00000180: 52c1 453f 13e9 dd3e 9d0e 44bd bbfb a8bd
00000190: a838 bebd 6846 d9bd 97bf 0f3f b959 9abe
000001a0: 278b cdbd db64 fcbe fb98 cdbc 9800 bfbe
000001b0: 588c 8e3d a7e6 673e dff1 343e 8fdc 90bd
000001c0: 23c3 5e3e 21a8 07be b727 b0bd d7bb 4bbd
000001d0: 648c 7ebd 02e2 093b 8a90 5d3d e477 2c3e
000001e0: 1c0f 0a3d 20e3 453e fd66 3fbe 383d 05bf
000001f0: 3791 9a3d df50 873d cf05 5c3f bb11 a7bc
00000200: 2425 0f3e 5d71 61bc 80d5 93bd 00b4 a73d
00000210: 52b5 dbbc 075a fbbe 42f1 8fbe c83f 8e3c
00000220: 1a23 333d 2ac0 a23d 0ef5 84be 4e12 a7be
00000230: bae7 fa3e d8d5 b7bd 4f98 043e d512 0dbe
00000240: aefd ecbe aa94 7d39 ef05 463e 5649 e83e
00000250: a9e5 b53d 9452 51be 248b 7c3e d6f4 453f
00000260: 5d87 a63c 2455 4c3e f3fb 29be 4b90 023f
00000270: 42f1 a9be a02b 03bc 3e1d 1a3e 1ec0 883d
00000280: d949 72bd caa2 63bd 8541 d53d 53de a4be
00000290: 3bbe f0be 9c9b 803d 00bf 35bf be53 363d
000002a0: 2e77 75bf 3ee3 203d 8070 12bc 8ec4 cbbc
000002b0: de21 9cbd 225c 903d ca7a 5ebc 09c4 583d
000002c0: 525d 65bf 192e 1a3f 54d2 6ebd f479 583d
000002d0: b0d9 9abe d66c fbbe 8d30 a93e d08a c7bd
000002e0: b9e9 8c3d 4eca 943e becc 53bc f393 0ebe
000002f0: d044 593e bb29 c2be b3ee a83d 7353 70bd
00000300: 3ae2 3dbd 9426 87bc e01a 78be 569f b83d
00000310: 763b 31be 1487 033f 1baa 0a3f 0cd0 fcbe
00000320: d192 8c3c 807b 9dbe 0c75 24be 7334 fdbe
00000330: 0223 d0be 6901 8dbe 7b51 a8be 0755 f1be
00000340: be78 0ebe aadf 25be 2c99 2d3d 4f9f 9abe
00000350: e705 babd 603e 7ebb 566c 90bd f3e3 413f
00000360: 1cdb f0bc 2220 0ebe 64cb 5b3f a0ed 13bc
00000370: 6d08 bd3e ca75 b0bd 45cd 81be 3ecb 1d3b
00000380: 03cd b13e 47d3 2a3f f49d a0bd edeb 2bbd
00000390: 3ade 143d 547a 02bc d7d9 f03e f5c8 c3be
000003a0: 20ba bfbd 4a81 60be b158 57bd d8d3 f6be
000003b0: fbd2 833d 5862 7d3e a816 1d3e 31bd d23c
000003c0: 93a1 8bbc 43fc 713c 2ace 9bbe 2423 b7bc
000003d0: 5af9 61bc 24ef 09be 5dea 923b dae2 8bbd
000003e0: abda b03d 87ce d13e c10f 9fbd 4dc6 f3be
000003f0: a17d d2bc 9ae6 1b3a b32e 443f 3848 0bbe
-0.13387404 0.021849172 0.05756356 0.23175636 -0.1805484 -0.5848542 -0.2578113 -0.08388195
-0.112084016 0.0735684 -0.42192075 -0.15263024 0.3123068 -0.060841475 0.2943297 -0.054978162
-0.51117224 0.054942824 -0.28268698 0.14853026 0.33385184 -0.33924824 0.42118216 0.6515006
0.045098312 -0.20014694 -0.31399733 0.32685044 -0.22613141 -0.09191163 -0.05213254 -0.08410207
0.04459808 0.058241982 0.024927638 -0.34227133 -0.43037266 -0.20323329 -0.68215257 -0.05374802
-0.3815626 0.022595592 0.12940198 -0.037779614 -0.031377397 0.12692271 -0.1456902 0.09143681
-0.68488705 0.39585286 0.02781143 -0.058581978 -0.44051653 -0.43589756 -0.40505162 0.16419113
0.051893298 0.30214733 -0.012263742 0.21223544 0.13196965 -0.34082854 -0.0065156016 -0.06846374
0.2852157 -0.05802138 -0.18757577 0.063749716 -0.43673328 0.46939558 0.41557705 -0.522941
-0.05272715 -0.32485747 -0.11018484 -0.54144955 -0.043866105 -0.3511241 -0.23356539 -0.3310292
-0.2283018 0.14078172 -0.050688244 -0.029313188 -0.11624541 -0.060881607 -0.057743657 0.5943427
-0.014989771 -0.1678857 0.6090842 0.044551425 0.44710502 -0.07846596 -0.16449524 -0.08129513
0.7724811 0.43341884 -0.0478655 -0.08251139 -0.0928815 -0.10609132 0.5615172 -0.30146578
-0.10036307 -0.49295697 -0.02509736 -0.3730514 0.06960362 0.2264658 0.17670391 -0.07073318
0.21754126 -0.1324773 -0.08601325 -0.049739685 -0.062145606 0.0021039252 0.05409292 0.1684261
0.033705816 0.19324923 -0.1869163 -0.5204654 0.07547229 0.06607222 0.85946363 -0.020394197
0.13979012 -0.013759938 -0.07218456 0.08188629 -0.026819859 -0.49092123 -0.28113753 0.017364398
0.043734647 0.07946809 -0.25968212 -0.32631153 0.49004918 -0.08976334 0.12948726 -0.13776715
-0.46287292 0.00024183342 0.19338201 0.4536845 0.08881695 -0.20441657 0.24662453 0.77326715
0.020328218 0.19954354 -0.16600017 0.51001424 -0.33191878 -0.0080060065 0.15050218 0.066772684
-0.059152458 -0.05557517 0.104128875 -0.3220087 -0.47020134 0.0627968 -0.7099457 0.044513457
-0.9588498 0.039279215 -0.008937955 -0.024873998 -0.07623647 0.07048823 -0.01357908 0.05292133
-0.8959552 0.6022659 -0.058306053 0.05285068 -0.30244207 -0.49106473 0.33044854 -0.09743273
0.068805166 0.29060596 -0.012927232 -0.13923626 0.21217656 -0.37922463 0.08248653 -0.058673333
-0.046358325 -0.016497888 -0.24229002 0.09014766 -0.17307839 0.5137799 0.5416581 -0.49377477
0.017159851 -0.30758286 -0.16060275 -0.49454078 -0.4065171 -0.27540138 -0.32874665 -0.47135183
-0.13913247 -0.16198602 0.042382404 -0.30199668 -0.09083157 -0.0038794503 -0.070519134 0.7573845
-0.029401354 -0.13879445 0.85857224 -0.009028822 0.3692049 -0.086162165 -0.2535192 0.002407744
0.34726724 0.66728634 -0.07842627 -0.041973043 0.036344744 -0.007963736 0.470412 -0.38239256
-0.093616724 -0.2192432 -0.052574817 -0.482085 0.06436726 0.24744546 0.15340674 0.02572498
-0.017044818 0.014769617 -0.30430728 -0.022355624 -0.01379236 -0.13470131 0.0044835047 -0.06830378
0.086354576 0.4097788 -0.07766677 -0.4761223 -0.02569467 0.0005947143 0.7663376 -0.13601768

bias f4 [8]
00000000: 725c 0bbe 2e3d d9bc ec07 22be 995f 8dbd
00000010: 0fd8 63be 21b9 efbd 5493 76be 47a6 90bd
-0.13609484 -0.02651843 -0.15823334 -0.069029994 -0.22250389 -0.117052324 -0.24079639 -0.07062965
