examples/python/DC_model.pth (torch, 110391 bytes, 8 tensors)

weight f4 [8, 1, 6, 6]
-0.10635173 -0.15962842 -0.0700138 -0.15399605 -0.19188376 0.39118618 -0.52635396 -0.4863
-0.6479689 -0.4047767 -0.63269705 -0.41509768 -0.072828464 0.11787145 -0.04269251 0.24418855
0.31836557 -0.06478312 0.6126632 0.90855163 0.9382702 1.0955654 1.0187477 0.46344045
0.76529294 0.96304196 0.8099172 1.02177 0.90381736 0.3996511 0.25477374 0.3531436
0.46212453 0.5637328 0.22922297 -0.20729303 0.14297874 0.0655572 -0.06454621 0.09053208
-0.15995973 0.13340975 0.058447316 0.10329692 -0.094097756 -0.08250674 0.11682187 0.05107838
0.05036503 -0.022346213 0.059290245 0.023633584 -0.14419805 -0.06203866 -0.033625856 -0.10830389
-0.08832576 -0.15371996 -0.113565706 -0.091937564 0.04561025 -0.004036352 -0.12761992 -0.15351163
0.09208001 0.028316185 -0.05266752 -0.032550454 0.041031703 -0.012001917 0.056531057 -0.097348854
-0.0010292451 1.0951751 1.0603296 1.8064752 1.2550948 0.59973043 -0.023284916 0.2606069
0.16154297 1.4405696 0.5802374 -0.95015454 -0.70965147 -0.117914766 0.41009563 1.7848302
1.1890718 -0.4213931 0.65198475 1.5016766 2.143606 2.1869242 2.1016808 0.21221869
1.9974543 2.2707744 2.7996387 2.7017965 2.3808243 1.6326681 -0.4053322 0.1422213
0.9980078 0.5916783 0.41949758 -0.24405976 -0.026774049 -0.028918698 -0.1526348 -0.13570309
0.053490877 -0.1292306 0.12205775 -0.08167406 -0.013682306 0.08733989 0.057488978 -0.122163236
-0.122979425 -0.13993403 -0.0818429 0.005565271 0.15248512 0.10863723 -0.14519845 -0.14547393
-0.13779458 0.056888714 0.07991199 0.09581299 0.077555075 0.14079411 -0.13852847 -0.12816177
-0.12999406 -0.07951969 0.11069639 0.05643882 -0.062920496 0.029685006 -0.06897752 0.10072772
-0.13354638 -0.16530417 0.1234317 0.06111081 0.057357445 -0.12924443 0.0054175705 -0.034735575
0.105440035 -0.07033849 -0.13974749 -0.14957717 -0.057401203 0.10698821 0.09532209 -0.0833153
-0.09137543 0.0067811757 0.04287426 0.15544371 0.017206132 -0.15119746 0.023903236 -0.11301522
0.0069245547 -0.075406656 0.007012978 -0.04424777 -0.055731773 0.028505027 -0.12395829 -0.09320027
0.052497327 0.10002889 -0.12932804 0.10433282 0.124603115 -0.12042689 -0.12021715 0.08531372
0.12695682 0.04677892 -0.015689854 -0.14946471 -0.15431222 -0.085040346 -0.025965247 -0.0126186805
-0.12005258 -0.092509426 0.048848484 0.027721848 -0.07401193 -0.13610816 0.10589242 0.06857919
0.14693563 0.13009088 0.15780777 -0.087279856 0.040110193 -0.1106535 0.08270938 0.06888051
-0.13997495 0.083964795 -0.16087627 -0.1351024 0.08216866 -0.15988219 -0.12226383 -0.08089712
0.1687159 0.07581735 -0.061981034 -0.027695563 -0.25383952 -0.13034627 0.07832699 0.17087463
-0.124027096 -0.19866137 -0.14032193 0.008965265 0.15499459 -0.024766723 -0.15432313 -0.17207709
0.032393508 -0.108210094 0.312631 0.2742377 -0.15094754 0.086132206 0.1266099 -0.046528105
0.28833184 0.21375489 0.06158878 -0.13498375 -0.021491481 -0.14387552 0.20152798 0.012938775
0.042647757 0.1901559 0.15011723 0.10942032 -0.09704126 0.087379485 -0.091247626 0.098110594
00000000: f0ce d9bd a275 23be 6563 8fbd 24b1 1dbe
00000010: 2d7d 44be 8e49 c83e 22bf 06bf 50fc f8be
00000020: 4ae1 25bf e43e cfbe 6ff8 21bf af87 d4be
00000030: 1727 95bd 9666 f13d 57de 2ebd 900c 7a3e
00000040: d000 a33e 03ad 84bd 7fd7 1c3f d796 683f
00000050: 7a32 703f 7d3b 8c3f 5366 823f 1148 ed3e
00000060: 3dea 433f eb89 763f bc56 4f3f 5cc9 823f
00000070: 9360 673f 129f cc3e b471 823e 3dcf b43e
00000080: 969b ec3e cb50 103f 6db9 6a3e a044 54be
00000090: 0569 123e da42 863d ce30 84bd e268 b93d
000000a0: 7ccc 23be 919c 083e 7466 6f3d 568d d33d
000000b0: 53b6 c0bd 4bf9 a8bd 4e40 ef3d 9037 513d
000000c0: 904b 4e3d 680f b7bc 54da 723d 389b c13c
000000d0: a7a8 13be 401c 7ebd 44bb 09bd 6ece ddbd
000000e0: 23e4 b4bd c468 1dbe 2395 e8bd c349 bcbd
000000f0: d0d1 3a3d 6043 84bb ccae 02be 2732 1dbe
00000100: 7294 bc3d 58f7 e73c e6b9 57bd a053 05bd
00000110: dc10 283d b0a3 44bc 1c8d 673d d65e c7bd
00000120: bce7 86ba b32e 8c3f e1b8 873f 943a e73f
00000130: f2a6 a03f ef87 193f 02c0 bebc 456e 853e
00000140: 856b 253e 9664 b83f 708a 143f 543d 73bf
00000150: b8ab 35bf 4c7d f1bd 0ef8 d13e 5175 e43f
00000160: 8133 983f d6c0 d7be 79e8 263f f036 c03f
00000170: d730 0940 91f6 0b40 f081 0640 db4f 593e
00000180: 95ac ff3f 5e54 1140 482d 3340 3cea 2c40
00000190: 6d5f 1840 45fb d03f b487 cfbe 76a2 113e
000001a0: 707d 7f3f 3b78 173f 63c8 d63e cdea 79be
000001b0: 4055 dbbc e8e6 ecbc 4c4c 1cbe c0f5 0abe
000001c0: 4019 5b3d 0755 04be 6af9 f93d bb44 a7bd
000001d0: c02b 60bc 42df b23d 9079 6b3d b830 fabd
000001e0: a3dc fbbd de4a 0fbe 409d a7bd e05c b63b
000001f0: 0f25 1c3e 327d de3d e7ae 14be 1ef7 14be
00000200: 061a 0dbe 2404 693d e6a8 a33d 9a39 c43d
00000210: 32d5 9e3d 552c 103e 68da 0dbe d73c 03be
00000220: 2a1d 05be 38db a2bd cab4 e23d 642c 673d
00000230: 76dc 80bd f82d f33c 1644 8dbd 564a ce3d
00000240: 62c0 08be 7f45 29be c2c9 fc3d 544f 7a3d
00000250: a4ef 6a3d a758 04be e085 b13b e446 0ebd
00000260: f2f0 d73d a00d 90bd f719 0fbe c22a 19be
00000270: 861d 6bbd a21c db3d 3a38 c33d 36a1 aabd
00000280: 0b23 bbbd a034 de3b ec9c 2f3d a32c 1f3e
00000290: e0f3 8c3c 82d3 1abe b8d0 c33c 8674 e7bd
000002a0: 60e7 e23b ce6e 9abd 20cd e53b 263d 35bd
000002b0: 0047 64bd 6083 e93c d8dd fdbd c8df bebd
000002c0: 7007 573d f2db cc3d 926e 04be 72ac d53d
000002d0: eb2f ff3d 60a2 f6bd 6934 f6bd f6b8 ae3d
000002e0: f800 023e 419b 3f3d 0288 80bc 470d 19be
000002f0: 0604 1ebe a229 aebd 12b5 d4bc 95be 4ebc
00000300: 21de f5bd 9575 bdbd 5915 483d ee18 e33c
00000310: 9193 97bd f05f 0bbe 20de d83d 3f73 8c3d
00000320: 4b76 163e 8b36 053e 5c98 213e c8bf b2bd
00000330: 964a 243d 4d9e e2bd 8963 a93d 3a11 8d3d
00000340: 9855 0fbe bcf5 ab3d c0bc 24be 4958 0abe
00000350: 0b48 a83d 28b8 23be 7565 fabd 64ad a5bd
00000360: dcc3 2c3e 2046 9b3d d3df 7dbd cee1 e2bc
00000370: 41f7 81be 7e79 05be e769 a03d c2f9 2e3e
00000380: eb01 febd e36d 4bbe 8db0 0fbe 0ce3 123c
00000390: e7b6 1e3e 95e3 cabc e206 1ebe fa34 30be
000003a0: 0eaf 043d 419d ddbd 2c11 a03e e268 8c3e
000003b0: fe91 1abe 1566 b03d 07a6 013e 4194 3ebd
000003c0: 3ba0 933e 90e2 5a3e 8444 7c3d 2e39 0abe
000003d0: e70e b0bc 1b54 13be 5a5d 4e3e 28fd 533c
000003e0: 6aaf 2e3d 3ab8 423e 55b8 193e c317 e03d
000003f0: 91bd c6bd 04f4 b23d 09e0 babd 35ee c83d

bias f4 [8]
-0.081499286 -0.14376438 -4.175772 -0.16188598 -0.05352901 0.034756176 -0.04572225 -0.041829832
00000000: 19e9 a6bd f836 13be ed9f 85c0 70c5 25be
00000010: 3c41 5bbd 7e5c 0e3d 4147 3bbd c255 2bbd

weight f4 [8, 8, 3, 3]
-0.0099660205 -0.011061788 -0.09198982 -0.104714856 0.051754784 -0.09090132 0.034033313 -0.025279142
-0.032741554 -0.10374685 0.05388301 -0.100258484 0.07861254 -0.025046676 -0.025662571 -0.022790208
-0.093253165 0.0361607 0.07549812 0.020191722 0.05493385 -0.0904516 -0.116934955 0.0036099793
-0.097023875 -0.047172733 0.017751096 -0.037248433 -0.00068853796 0.038796715 0.040656768 -0.014565572
-0.021244988 0.07982109 0.07670186 0.087816514 0.10004049 -0.045619495 0.020623721 0.035804905
0.06731088 0.0206336 0.08884742 -0.041999586 -0.08452677 0.016266473 0.022085674 -0.08819432
-0.0948868 -0.05868374 0.018077977 -0.105164595 0.106678404 -0.06508313 0.057664145 -0.07650458
0.020089589 0.051159885 -0.06456847 -0.020174444 0.043308817 -0.087981634 0.01031322 0.07742614
0.012664193 0.08100688 -0.0747339 -0.09015489 0.008483389 -0.055692542 -0.046109136 -0.10718368
0.028857822 -0.14468263 0.062054772 0.11197632 -0.035179406 -0.024839543 0.081059724 -0.16328952
0.058668036 0.09543527 -0.009989351 0.06976587 -0.08122108 0.100043334 0.0786436 0.04496003
-0.06267867 -0.11597442 0.14935829 -0.38013288 0.038339954 0.36752954 -0.14606622 0.17795056
0.28250033 -0.24163592 -0.016025946 -0.081777155 -0.07155047 -0.08392069 -0.012969881 0.09287346
-0.031121328 0.033547096 0.099624924 -0.030995801 -0.11019881 -0.05855432 -0.010716528 0.109405674
0.09696787 0.015704133 0.10587964 0.07713113 0.106172316 0.06258382 0.061777785 -0.023388717
-0.034244105 -0.0057064258 0.08545577 -0.084080055 0.09968869 -0.051000327 0.05110005 0.05872342
-0.043837085 0.036740087 -0.006065751 -0.12886758 -0.04332013 0.02626105 -0.07736605 0.068426885
0.046549596 0.09194484 0.009201967 0.090270326 0.045467313 -0.09939604 -0.0398915 0.014877139
-0.14414261 -0.06997525 0.28811136 -0.25031698 0.041862305 0.15058455 -0.011713044 0.05878713
0.1149587 0.10974305 -0.092827715 -0.105343044 -0.01887767 0.0024396256 0.01706732 -0.101526015
-0.10276697 -0.100633554 -0.44660854 -0.2726213 0.7199164 -0.7750921 0.06314124 0.7652357
-0.36054432 0.113028474 0.48948833 -0.108304195 0.034344308 0.112688296 0.021706723 0.047004722
0.04619599 -0.08567014 -0.098872304 0.039321147 0.018349983 -0.1103426 0.09943219 0.06751511
-0.11075141 0.094618626 -0.08112703 0.02099485 0.005105585 -0.051954247 0.014166372 0.005763655
0.013467734 -0.080022514 -0.021099363 -0.09435883 -0.02014457 -0.07146771 -0.116894856 -0.12254404
0.071575284 -0.03263288 -0.037555803 0.054181427 0.040247682 -0.09118073 -0.080626726 -0.043444496
0.112565614 0.005881533 0.007980169 -0.079469495 -0.04766754 -0.07312395 -0.056711815 0.115021236
0.77202207 0.31962177 -0.030302446 0.54044837 -0.11255457 -0.81380194 0.22391373 0.1592251
0.13176839 0.0335652 0.070707746 0.06857415 -0.11576249 -0.08485147 0.087442346 0.0524861
-0.058653113 -0.03373626 1.5377471 0.4501285 -0.23991936 1.8570532 -0.11850122 -2.3518472
1.1301804 -0.29411474 -1.6381867 0.088068046 -0.029539391 -0.00017375499 -0.05551871 -0.041715153
0.09766347 -0.014507651 0.08631585 -0.08618748 0.0995852 -0.09357935 -0.04517757 -0.10125053
00000000: 8548 23bc 803c 35bc 2965 bcbd be74 d6bd
00000010: d3fc 533d 792a babd 8466 0b3d 3416 cfbc
00000020: 021c 06bd 3a79 d4bd 6eb4 5c3d 5254 cdbd
00000030: 9dff a03d b02e cdbc 503a d2bc 88b2 babc
00000040: 84fb bebd 3e1d 143d c29e 9a3d 1c69 a53c
00000050: 5102 613d b03e b9bd 987b efbd 6795 6c3b
00000060: 74b4 c6bd 3238 41bd bf6a 913c d091 18bd
00000070: 007f 34ba 4ee9 1e3d b687 263d 70a4 6ebc
00000080: f809 aebc 3d79 a33d dd15 9d3d 25d9 b33d
00000090: 07e2 cc3d 82db 3abd 14f3 a83c 2aa8 123d
000000a0: 49da 893d cc07 a93c a3f5 b53d c207 2cbd
000000b0: 5f1c adbd 4441 853c 04ed b43c 399f b4bd
000000c0: 0354 c2bd 5d5e 70bd 4418 943c 8960 d7bd
000000d0: 357a da3d 4e4a 85bd 3d31 6c3d 6fae 9cbd
000000e0: ec92 a43c 078d 513d 793c 84bd e044 a5bc
000000f0: 9664 313d b72f b4bd c8f8 283c 9991 9e3d
00000100: 7a7d 4f3c efe6 a53d 160e 99bd 21a3 b8bd
00000110: eafd 0a3c dd1d 64bd efdc 3cbd 1e83 dbbd
00000120: 3d67 ec3c af27 14be 252d 7e3d d753 e53d
00000130: 4818 10bd 4c7c cbbc a402 a63d 5e35 27be
00000140: e54d 703d 9173 c33d 60aa 23bc 69e1 8e3d
00000150: 3d57 a6bd 85e3 cc3d e50f a13d 0228 383d
00000160: ad5d 80bd ff83 edbd 61f1 183e c7a0 c2be
00000170: 5b0a 1d3d d52c bc3e 6292 15be ac38 363e
00000180: e2a3 903e 686f 77be d848 83bc c87a a7bd
00000190: 0e89 92bd 9cde abbd a07f 54bc 7134 be3d
000001a0: 28f2 febc ae68 093d 2708 cc3d e8ea fdbc
000001b0: eaaf e1bd a8d6 6fbd 6094 2fbc 1510 e03d
000001c0: 1797 c63d f4a5 803c 6dd7 d83d edf6 9d3d
000001d0: df70 d93d f22b 803d b40a 7d3d b299 bfbc
000001e0: 8c43 0cbd f8fc babb 6f03 af3d 2a32 acbd
000001f0: 9529 cc3d b8e5 50bd 494e 513d f887 703d
00000200: 848e 33bd c67c 163d 35c3 c6bb ddf5 03be
00000210: 7370 31bd 6a21 d73c 1772 9ebd 6523 8c3d
00000220: caaa 3e3d 944d bc3d d9c3 163c a6df b83d
00000230: ef3b 3a3d 2790 cbbd 4565 23bd 3ebf 733c
00000240: 1f9a 13be 2f4f 8fbd 5583 933e 8c29 80be
00000250: cf77 2b3d d632 1a3e 11e8 3fbc c6ca 703d
00000260: 786f eb3d f7c0 e03d 751c bebd 18be d7bd
00000270: 58a5 9abc 20e2 1f3b c4d0 8b3c dfec cfbd
00000280: 7d77 d2bd f718 cebd e0a9 e4be 0595 8bbe
00000290: 714c 383f 706c 46bf 3250 813d 7de6 433f
000002a0: 4499 b8be 797b e73d 379e fa3e 97ce ddbd
000002b0: 9eac 0c3d 1fc9 e63d 4cd2 b13c 0688 403d
000002c0: 0238 3d3d d473 afbd 907d cabd 360f 213d
000002d0: b452 963c 4dfb e1bd 1ba3 cb3d 5d45 8a3d
000002e0: a3d1 e2bd 69c7 c13d ee25 a6bd 64fd ab3c
000002f0: c04c a73b facd 54bd 121a 683c 0bdd bc3b
00000300: c5a7 5c3c d8e2 a3bd 92d8 acbc 343f c1bd
00000310: 3a06 a5bc aa5d 92bd 9266 efbd 5ff8 fabd
00000320: 1096 923d 0eaa 05bd 1dd4 19bd 58ed 5d3d
00000330: c1da 243d f6bc babd a01f a5bd dbf2 31bd
00000340: cd88 e63d e0b9 c03b 41bf 023c e7c0 a2bd
00000350: 0a3f 43bd 02c2 95bd a64a 68bd 4190 eb3d
00000360: 3da3 453f 77a5 a33e d63c f8bc d35a 0a3f
00000370: 0383 e6bd 5355 50bf a449 653e e80b 233e
00000380: 4bee 063e aa7b 093d 39cf 903d 9b70 8c3d
00000390: e214 edbd 9cc6 adbd f914 b33d aafb 563d
000003a0: 3f3e 70bd 082f 0abd e6d4 c43f 3e77 e63e
000003b0: 6cad 75be ebb3 ed3f c5b0 f2bd aa84 16c0
000003c0: c0a9 903f 3596 96be 1ab0 d1bf 055d b43d
000003d0: 98fc f1bc 0032 36b9 9667 63bd 82dd 2abd
000003e0: c903 c83d 80b1 6dbc 5dc6 b03d 1083 b0bd
000003f0: 53f3 cb3d 88a6 bfbd 1e0c 39bd 705c cfbd

bias f4 [8]
0.036245786 -0.11256164 -0.0855652 -0.0029519708 0.021289648 0.10518388 0.010601397 -0.22135505
00000000: 7676 143d b886 e6bd cf3c afbd da75 41bb
00000010: a167 ae3c a56a d73d 7bb1 2d3c e6aa 62be

weight f4 [128, 192]
0.015868247 0.053510144 -0.022228688 -0.0041798577 0.03560374 -0.03036667 0.015866274 -0.010246375
-0.0023819536 -0.06982359 -0.062203936 -0.04453919 -0.071566276 -0.023935072 -0.042696796 -0.024681628
0.017409772 0.0525225 -0.03634784 0.017688794 -0.038547147 -0.054045122 0.06614323 -0.05222235
0.013998993 0.065486304 -0.024654966 -0.06563333 -0.0469526 -0.0043027564 -0.05143304 0.07790548
-0.085429855 -0.07930594 -0.026936438 0.039724693 -0.020656625 0.041621193 0.0029138592 0.05643581
0.011825885 -0.052154418 -0.0011608452 0.045642592 -0.02306683 0.07590186 -0.030004919 0.04730581
0.026783682 -0.10875188 0.012336376 0.06854283 -0.018564394 0.03173078 0.060009547 -0.076169886
0.011607924 0.0054867403 0.08854055 -0.04881947 -0.034001816 0.036282305 -0.0049749673 -0.0018339017
0.097565584 -0.048449073 -0.03971807 0.012124213 0.088468514 -0.044097472 0.07901137 -0.064933755
-0.102867134 0.033493098 0.056877527 -0.07231454 0.038025256 0.06947038 -0.17094922 0.16086853
0.20053768 0.11479683 -0.105425574 0.14922169 0.05586624 0.04396705 -0.04101775 -0.0034747957
0.027975975 0.11870348 -0.018250655 -0.0013362973 -0.037468463 0.28523305 -0.02694597 0.08091353
0.093194865 -0.025697762 -0.006787255 0.06866373 -0.050939463 -0.07716754 -0.042048104 0.07047337
-0.0071020983 -0.01864638 0.062138136 0.07431888 -0.06309034 -0.04311383 0.016359929 -0.03627101
0.030073354 -0.03734773 0.06364892 -0.06923736 0.009901114 0.05158365 -0.02678773 -0.07869446
-0.08136993 0.026842263 0.018665086 0.031835623 0.087762274 0.03948581 -0.11294899 0.19375464
0.2867358 -0.49991825 -0.096713364 0.052461248 0.07333618 0.03389402 0.03181605 0.059567522
-0.04382968 -0.0055276025 -0.070391305 -0.09706555 -0.020935979 0.14699571 -0.029559089 0.11696926
0.03877159 -0.03806596 -0.033271004 -0.05001823 -0.09754246 0.026370429 0.03149662 0.059342578
0.00031783283 0.046789818 -0.07048723 0.045869797 0.053440683 0.061604507 -0.0039389855 -0.06546649
-0.035151195 0.022844959 0.01038619 0.06379269 0.033472005 -0.0074071083 0.013656058 0.041760195
0.24130143 0.102715746 -0.11572677 -0.16480115 -0.15065944 0.0048265792 0.37132332 0.08369246
-0.081158176 -0.36321568 -0.0571427 -0.1462464 -0.029766845 0.10236828 0.19740607 0.10328769
0.0034641905 0.021955965 0.1850035 0.09481334 -0.1648795 -0.41512182 -0.10474941 -0.033383187
0.0052273497 -0.00843282 0.0013995096 -0.02520239 -0.039143883 -0.029624343 0.07075037 0.023977127
-0.017714923 -0.027324747 0.0132737765 0.01509163 0.03690768 0.02611474 -0.019415736 -0.017593876
-0.017176714 -0.06294674 0.024704635 -0.005273804 -0.038231626 -0.038156778 0.060753856 -0.05325741
0.046610583 -0.07204377 0.006078044 0.017061789 -0.058336273 0.07377376 -0.04360506 0.047916796
0.03444771 0.023008497 0.06028605 -0.05866252 0.065074906 0.011984239 -0.05162139 -0.035672426
-0.041229673 -0.033532556 0.04149072 0.06782769 -0.005956433 -0.05521417 0.014351909 0.052363805
-0.0029150785 -0.009692911 -0.027999591 0.034571428 0.046113137 -0.0045973775 -0.05271732 0.06605698
0.019340215 -0.001184033 0.076169 0.039272834 -0.0012118514 0.006608762 0.06828513 0.055563256
00000000: 20fe 813c 742d 5b3d f018 b6bc 30f7 88bb
00000010: 3ad5 113d 86c3 f8bc fdf9 813c 69e0 27bc
00000020: 8d1a 1cbb acff 8ebd 8ec9 7ebd ba6e 36bd
00000030: 5791 92bd 7c13 c4bc d6e2 2ebd 2031 cabc
00000040: f09e 8e3c d521 573d 79e1 14bd 17e8 903c
00000050: 9de3 1dbd 6b5e 5dbd 1a76 873d 1ae7 55bd
00000060: 085c 653c af1d 863d 36f9 c9bc c46a 86bd
00000070: 5f51 40bd 23fe 8cbb 74ab 52bd e98c 9f3d
00000080: d9f5 aebd 276b a2bd cea9 dcbc 5cb6 223d
00000090: 1538 a9bc fc7a 2a3d 72f6 3e3b 3c29 673d
000000a0: 5bc1 413c df9f 55bd 8027 98ba baf3 3a3d
000000b0: a6f6 bcbc 6f72 9b3d e0cc f5bc bdc3 413d
000000c0: 7469 db3c 4eb9 debd 831e 4a3c 2f60 8c3d
000000d0: 5b14 98bc 22f8 013d 92cc 753d f5fe 9bbd
000000e0: 292f 3e3c 1dca b33b bf54 b53d edf6 47bd
000000f0: 7d45 0bbd c19c 143d 0d05 a3bb 885f f0ba
00000100: 77d0 c73d 8972 46bd 6aaf 22bd a3a4 463c
00000110: fb2e b53d 8d9f 34bd b7d0 a13d fdfb 84bd
00000120: 01ac d2bd 0f30 093d 69f8 683d a519 94bd
00000130: 5fc0 1b3d 7d46 8e3d 500d 2fbe b8ba 243e
00000140: c059 4d3e 9a1a eb3d 5de9 d7bd 92cd 183e
00000150: 00d4 643d cb16 343d 3a02 28bd 66b9 63bb
00000160: df2d e53c cf1a f33d 6682 95bc b226 afba
00000170: 8878 19bd 110a 923e cbbd dcbc feb5 a53d
00000180: f3dc be3d 1d84 d2bc 9f67 debb 929f 8c3d
00000190: e6a5 50bd 040a 9ebd a23a 2cbd 5854 903d
000001a0: b8b8 e8bb 4bc0 98bc 8f84 7e3d 7f34 983d
000001b0: 8235 81bd 2198 30bd 4205 863c e990 14bd
000001c0: 655c f63c eff9 18bd 5d5a 823d 51cc 8dbd
000001d0: 4838 223c 6149 533d f171 dbbc 902a a1bd
000001e0: 47a5 a6bd 4ee4 db3c 86e7 983c 1266 023d
000001f0: b5bc b33d dfbb 213d cd51 e7bd 9e67 463e
00000200: 09cf 923e 49f5 ffbe a811 c6bd 9be1 563d
00000210: 4731 963d 75d4 0a3d 8c51 023d 13fd 733d
00000220: c086 33bd e420 b5bb 5129 90bd 4eca c6bd
00000230: ee81 abbc 0b86 163e e725 f2bc 948d ef3d
00000240: f5ce 1e3d 0deb 1bbd 2d47 08bd eadf 4cbd
00000250: 57c4 c7bd cc06 d83c 9a02 013d 3411 733d
00000260: cda2 a639 aea6 3f3d 9c5b 90bd f8e1 3b3d
00000270: 9ee4 5a3d 0255 7c3d 9b12 81bb 4c13 86bd
00000280: b3fa 0fbd 5a25 bb3c d72a 2a3c bea5 823d
00000290: f119 093d 54b7 f2bb a9bd 5f3c bd0c 2b3d
000002a0: b917 773e a25c d23d 2802 edbd a2c1 28be
000002b0: 7846 1abe 4828 9e3b 171e be3e f466 ab3d
000002c0: 4236 a6bd 68f7 b9be 770e 6abd 9ec1 15be
000002d0: 99d9 f3bc 76a6 d13d d124 4a3e 7f88 d33d
000002e0: 7907 633b ffdc b33c 8f71 3d3e 7f2d c23d
000002f0: 2cd6 28be d98a d4be dc86 d6bd cfbc 08bd
00000300: 304a ab3b d029 0abc c06f b73a 3e75 cebc
00000310: 5655 20bd c0ae f2bc 92e5 903d ae6b c43c
00000320: e31e 91bc 26d8 dfbc 417a 593c e242 773c
00000330: 822c 173d 94ee d53c c00d 9fbc 0821 90bc
00000340: 2eb6 8cbc 38ea 80bd 6061 ca3c e0cf acbb
00000350: c498 1cbd 484a 1cbd 09d9 783d 7124 5abd
00000360: bdea 3e3d af8b 93bd 542a c73b 2ac5 8b3c
00000370: 04f2 6ebd b216 973d 389b 32bd 6744 443d
00000380: 0b19 0d3d 517c bc3c 81ee 763d 1c48 70bd
00000390: fe45 853d 8b59 443c f370 53bd 401d 12bd
000003a0: 72e0 28bd 6f59 09bd 2cf2 293d 3ee9 8a3d
000003b0: 2e2e c3bb 4128 62bd 4524 6b3c 6e7b 563d
000003c0: e70a 3fbb 04cf 1ebc 665f e5bc c59a 0d3d
000003d0: 21e1 3c3d 99a5 96bb 1eee 57bd e248 873d
000003e0: 5f6f 9e3c 8e31 9bba 7efe 9b3d 8ddc 203d
000003f0: fcd6 9eba 508e d83b 13d9 8b3d 4c96 633d

bias f4 [128]
-0.0075536096 0.024724538 -0.0315541 -0.026626376 0.06783501 0.10466369 -0.04588851 -0.014753282
0.035109583 0.04257086 0.095926024 0.040073782 0.016613686 -0.036301147 0.037686512 0.06011446
0.07937005 -0.033245537 -0.014934824 -0.018303761 0.08208911 0.014104437 0.0738335 0.083389215
0.012337794 -0.009242107 0.07591087 -0.04726511 0.04587219 0.062709235 -0.049711447 -0.068343885
0.033320364 0.032048993 0.02423873 -0.020119134 -0.037026353 0.044122603 -0.02326113 0.02321373
-0.08807214 -0.017514965 0.020848824 -0.04513219 -0.019046 -0.056346316 0.00204729 -0.06356915
-0.11129824 -0.019982506 -0.034968138 0.018880809 0.105110705 0.092569634 -0.004813403 -0.058834046
0.026179843 0.07770632 -0.055561505 -0.0068145907 -0.02383961 0.03411815 0.027891582 -0.008211131
-0.050409466 -0.0096599385 -0.0428819 -0.033130772 0.020983629 -0.018538501 0.11408597 0.08686179
-0.029458689 0.022299306 0.011333803 0.08076722 0.005529965 0.06251025 -0.022601042 -0.050738458
0.06915144 -0.023357475 -0.01011654 0.053624745 0.052391525 -0.025113199 0.015221858 -0.04067419
-0.028944373 0.060546733 0.090931885 0.043174185 0.0863723 -0.055125743 0.056323323 0.0006267836
-0.01957721 0.0016839353 -0.07217773 0.05439956 -0.025557881 -0.07127654 0.04840762 -0.01524113
-0.014317571 -0.0154810855 -0.05042855 -0.013398625 0.05162828 0.011240586 0.044050906 0.050189216
-0.011042205 -0.003096421 0.06520303 0.038712308 0.045835044 -0.057228096 0.0014545581 -0.002081197
0.007107483 0.050250422 0.055987235 0.08515684 0.041720115 -0.0024225155 -0.02621438 -0.021463105
00000000: 4584 f7bb 1d8b ca3c df3e 01bd 8f1f dabc
00000010: 15ed 8a3d eb59 d63d 97f5 3bbd c0b7 71bc
00000020: 11cf 0f3d c85e 2e3d dd74 c43d 6824 243d
00000030: 6d19 883c 83b0 14bd 2c5d 1a3d 943a 763d
00000040: c48c a23d 792c 08bd 31b1 74bc c5f1 95bc
00000050: 561e a83d 4c16 673c 0536 973d f7c7 aa3d
00000060: 7524 4a3c 356c 17bc 2977 9b3d 0f99 41bd
00000070: 7ae4 3b3d b36d 803d 3b9e 4bbd e1f7 8bbd
00000080: ef7a 083d ce45 033d 4d90 c63c e2d0 a4bc
00000090: f2a8 17bd e7b9 343d 208e bebc b82a be3c
000000a0: 2b5f b4bd 8b7b 8fbc 27cb aa3c 88dc 38bd
000000b0: 5b06 9cbc 65cb 66bd d42b 063b 8b30 82bd
000000c0: 55f0 e3bd 5ab2 a3bc c03a 0fbd edab 9a3c
000000d0: 4844 d73d 2695 bd3d c0b9 9dbb f8fb 70bd
000000e0: 1c77 d63c 7e24 9f3d 7694 63bd ee4c dfbb
000000f0: 494b c3bc 79bf 0b3d e37c e43c fb87 06bc
00000100: 287a 4ebd b844 1ebc eea4 2fbd 22b4 07bd
00000110: dce5 ab3c 0ede 97bc e8a5 e93d 98e4 b13d
00000120: 5953 f1bc 09ad b63c 6ab1 393c 4969 a53d
00000130: b534 b53b 6005 803d d225 b9bc 21d3 4fbd
00000140: 459f 8d3d 2d58 bfbc d8bf 25bc 9fa5 5b3d
00000150: 7f98 563d 32ba cdbc 1a65 793c fb99 26bd
00000160: c01c edbc daff 773d 7f3a ba3d 6ad7 303d
00000170: f6e3 b03d 88cb 61bd 49b3 663d bc4e 243a
00000180: 6360 a0bc 7eb7 dc3a ebd1 93bd 13d2 5e3d
00000190: c35e d1bc 6ff9 91bd 1247 463d efb5 79bc
000001a0: 3f94 6abc 61a4 7dbc 2b8e 4ebd e885 5bbc
000001b0: 2d78 533d 6f2a 383c b96e 343d 3593 4d3d
000001c0: 5dea 34bc 53ed 4abb 2b89 853d cc90 1e3d
000001d0: 87bd 3b3d 0268 6abd dfa6 be3a b164 08bb
000001e0: e4e5 e83b 63d3 4d3d df52 653d b666 ae3d
000001f0: b6e2 2a3d 11c3 1ebb 8abf d6bc 65d3 afbc

weight f4 [8, 128]
-0.36198395 0.056807455 0.05752908 0.42326984 -0.24917312 -0.7034281 -0.24783936 -0.08388195
-0.14215112 0.07403082 -0.55203724 -0.2347076 0.4061803 -0.23544458 0.39190745 -0.028009385
-0.5948552 0.04508006 -0.3678895 0.19336163 0.447703 -0.339248 0.37261358 0.8058703
0.06388683 -0.3365995 -0.60713667 0.3268523 -0.19669722 -0.0338856 -0.014476221 -0.084023
0.044502918 0.0759404 0.013603979 -0.45566824 -0.44522288 -0.18033291 -0.6821454 -0.05374802
-0.33148 0.03115887 0.2661711 -0.050022483 0.1336868 0.24050225 -0.24812216 0.20648912
-0.612682 0.3985695 0.02781143 -0.04611071 -0.6415363 -0.7187515 -0.53011453 0.3138787
0.073709644 0.45491403 0.02390374 0.14726159 0.13361607 -0.344039 -0.10426336 -0.075276025
0.3444805 -0.060911663 -0.18275091 0.0063448153 -0.4896144 0.738455 0.5674393 -0.5681563
-0.058225185 -0.53101313 -0.113424584 -0.54193187 -0.012260848 -0.37202972 -0.24579823 -0.44723228
-0.39759815 0.24666834 -0.05068572 -0.09654973 -0.044766854 -0.058156386 -0.057733744 0.6267288
-0.014209636 -0.16784742 0.8423472 0.044551425 0.5940812 -0.078669794 -0.16394198 -0.26228124
0.81084037 0.43170854 -0.04519741 -0.08251139 -0.1369043 -0.120427765 0.59201944 -0.33652064
-0.1858528 -0.37516963 -0.020041483 -0.49913025 0.06586557 0.09609474 0.1867433 -0.07113343
0.3999064 -0.18463705 -0.18758774 -0.049739685 -0.07686584 -0.06973624 0.12203366 0.28339976
0.033705816 0.33901203 -0.19119321 -0.58825827 0.07723275 0.08612115 0.9193289 -0.16263862
0.17932831 0.008011327 -0.07986047 0.010263471 0.1131564 -0.78416055 -0.29798895 0.017364398
0.053673685 0.07801981 -0.3806771 -0.40395257 0.41039598 -0.1386417 0.13648115 -0.15933143
-0.6098987 -0.0013856218 0.12978528 0.5544407 0.018045852 -0.20441657 0.34646997 0.86371523
0.03930569 -0.008256493 -0.081871554 0.5050161 -0.27274936 -0.113773815 0.1868356 0.06736793
-0.059125274 -0.07232048 0.14904949 -0.27586642 -0.5638637 0.028056558 -0.70991206 0.044513457
-1.1935812 0.06069472 0.070710935 -0.018543907 -0.111671425 0.01579224 0.050186455 0.04900626
-0.77658176 0.6261651 -0.058306053 0.058667015 -0.35676748 -0.66914725 0.34149995 -0.29737797
0.10536892 0.31508672 -0.12683026 -0.1147931 0.21106212 -0.37476024 0.11341601 -0.08154226
0.03458905 -0.023754379 -0.269367 0.12734362 -0.36378473 0.6065268 0.5841567 -0.49474105
0.016860092 -0.33509383 -0.18947284 -0.49318257 -0.46653488 -0.35207728 -0.31586757 -0.42430115
-0.2681047 -0.16807726 0.04232301 -0.27631426 -0.056046274 -0.0025481156 -0.06983507 0.81538105
-0.026717218 -0.13872899 0.9718891 -0.009028822 0.43835035 -0.08668545 -0.2527706 0.14946051
0.7567859 0.6222297 -0.07598011 -0.042072587 0.022833442 -0.016673226 0.4620835 -0.37513757
0.011382627 -0.2560891 -0.09156917 -0.5807193 0.07100525 0.1638026 0.1898717 0.025786173
-0.08588691 -0.055517834 -0.3294642 -0.022355624 0.01281368 -0.17852277 0.13683577 0.06190294
0.086354576 0.24886872 -0.06464023 -0.5881537 -0.044272613 -0.060756892 0.7855886 -0.07150224
00000000: f655 b9be efae 683d 9da3 6b3d d3b6 d83e
00000010: 3d27 7fbe dd13 34bf 9ac9 7dbe 4dca abbd
00000020: 1090 11be 789d 973d 5052 0dbf 3057 70be
00000030: ddf6 cf3e 6218 71be 18a8 c83e f073 e5bc
00000040: 6e48 18bf dea5 383d 035c bcbe 9700 463e
00000050: 5439 e53e eab1 adbe 35c7 be3e 844d 4e3f
00000060: 19d7 823d c556 acbe 4f6d 1bbf 2f59 a73e
00000070: ff6a 49be a0cb 0abd ac2d 6dbc 4014 acbd
00000080: b148 363d a486 9b3d 39e3 5e3c 594d e9be
00000090: 41f4 e3be 31a9 38be 15a1 2ebf e226 5cbd
000000a0: bfb7 a9be e340 ff3c 9447 883e 60e4 4cbd
000000b0: 31e5 083e 3946 763e bc13 7ebe e271 533e
000000c0: bad8 1cbf 4d11 cc3e ccd4 e33c 95de 3cbd
000000d0: b93b 24bf 1900 38bf 96b5 07bf b5b4 a03e
000000e0: 15f5 963d 7eea e83e c7d1 c33c becb 163e
000000f0: a7d2 083e e125 b0be 0788 d5bd 512a 9abd
00000100: c05f b03e 827e 79bd 0e23 3bbe 2be8 cf3b
00000110: bdae fabe 630b 3d3f b443 113f b172 11bf
00000120: 887d 6ebd 7af0 07bf 264b e8bd 0cbc 0abf
00000130: b9e1 48bc ae7a bebe 88b2 7bbe a1fb e4be
00000140: fc91 cbbe a096 7c3e d49b 4fbd ddbb c5bd
00000150: 735d 37bd 6435 6ebd 387a 6cbd 4c71 203f
00000160: 88cf 68bc 32e0 2bbe 11a4 573f 8e7b 363d
00000170: b515 183f a11d a1bd 68e0 27be ba49 86be
00000180: 3c93 4f3f e708 dd3e eb20 39bd bbfb a8bd
00000190: a430 0cbe d5a2 f6bd 968e 173f 6f4c acbe
000001a0: 3250 3ebe 3c16 c0be 092e a4bc 008e ffbe
000001b0: 87e4 863d 52cd c43d a339 3f3e 67ae 91bd
000001c0: 88c0 cc3e 7f11 3dbe 0017 40be d7bb 4bbd
000001d0: d66b 9dbd e0d1 8ebd c9ec f93d c619 913e
000001e0: 1c0f 0a3d fc92 ad3e 27c8 43be 1898 16bf
000001f0: 342c 9e3d 4960 b03d 2459 6b3f bd8a 26be
00000200: d7a1 373e f141 033c e38d a3bd 1e28 283c
00000210: 8bbe e73d bfbe 48bf 0292 98be c83f 8e3c
00000220: f0d8 5b3d dac8 9f3d 1ce8 c2be dfd2 cebe
00000230: 6c1f d23e 17f8 0dbe b7c1 0b3e c727 23be
00000240: 5222 1cbf c19d b5ba 6fe6 043e d3ef 0d3f
00000250: e5d4 933c 9452 51be 8364 b13e 711c 5d3f
00000260: 01ff 203d 3e46 07bc 46ac a7bd bc48 013f
00000270: cea5 8bbe 3f02 e9bd d551 3f3e 33f8 893d
00000280: 582d 72bd c31c 94bd 6ea0 183e 5d3e 8dbe
00000290: 5f59 10bf ded6 e53c ccbc 35bf be53 363d
000002a0: 45c7 98bf 079b 783d e5d0 903d 64e9 97bc
000002b0: fdb3 e4bd ba5e 813c 5090 4d3d caba 483d
000002c0: 10ce 46bf 5b4c 203f 54d2 6ebd d34c 703d
000002d0: 3aaa b6be 3c4d 2bbf 15d9 ae3e ed41 98be
000002e0: a9cb d73d 0c53 a13e cbdf 01be a518 ebbd
000002f0: ab20 583e 93e0 bfbe a746 e83d a1ff a6bd
00000300: 3fad 0d3d 8b98 c2bc 79ea 89be 5e66 023e
00000310: fe41 babe 5745 1b3f 4b8b 153f b34e fdbe
00000320: 2d1e 8a3c 6b91 abbe 2b05 42be 6d82 fcbe
00000330: a9dd eebe 7943 b4be 65b9 a1be 003e d9be
00000340: 0545 89be 721c 2cbe e45a 2d3d 1079 8dbe
00000350: c790 65bd 49fe 26bb b005 8fbd d0bc 503f
00000360: 11de dabc f90e 0ebe b9cd 783f a0ed 13bc
00000370: 756f e03e 2488 b1bd 266b 81be 2d0c 193e
00000380: b9bc 413f 724a 1f3f 769b 9bbd 4e54 2cbd
00000390: 330d bb3c 4a96 88bc 3596 ec3e 0812 c0be
000003a0: 337e 3a3c 1c1e 83be 9e88 bbbd 05aa 14bf
000003b0: 336b 913d debb 273e ba6d 423e 863d d33c
000003c0: 7ae5 afbd ab66 63bd 88af a8be 2423 b7bc
000003d0: 78f0 513c acce 36be ad1e 0c3e f08d 7d3d
000003e0: abda b03d 71d7 7e3e 1962 84bd 3e91 16bf
000003f0: 3357 35bd 38dc 78bd 561c 493f c46f 92bd

bias f4 [8]
-0.13249034 -0.023747588 -0.16154152 -0.07567587 -0.22411571 -0.110626556 -0.24271503 -0.07047453
00000000: 8cab 07be 4d8a c2bc 246b 25be f3fb 9abd
00000010: 977e 65be 2d90 e2bd 4a8a 78be f354 90bd
