examples/python/debug-model.pth (torch_old, 119116 bytes, 8 tensors)

weight f4 [8, 1, 6, 6]
-0.09435424 -0.06628958 -0.028017309 -0.17039642 -0.09755284 0.22739348 -0.6565426 -0.3105366
-0.7126839 -0.5129707 -0.39649615 -0.4452613 -0.18281454 0.2509565 -0.21862192 0.0058883736
0.29062793 -0.09417478 0.59328383 0.8917818 0.7679364 0.8927913 0.7622249 0.6380946
0.79493207 0.7591225 0.73280597 0.96221924 0.6681152 0.66774106 0.36386156 0.15173559
0.51519734 0.49075788 0.111802615 0.1360624 0.14297874 0.0655572 -0.06454621 0.09053208
-0.15995973 0.13340975 0.058447316 0.10329692 -0.094097756 -0.08250674 0.11682187 0.05107838
0.05036503 -0.022346213 0.059290245 0.023633584 -0.14419805 -0.06203866 -0.033625856 -0.10830389
-0.08832576 -0.15371996 -0.113565706 -0.091937564 0.04561025 -0.004036352 -0.12761992 -0.15351163
0.09208001 0.028316185 -0.05266752 -0.032550454 0.041031703 -0.012001917 0.056531057 -0.097348854
0.119914345 0.95342803 0.62783515 0.85525185 0.8369305 0.5067976 -0.30760103 0.07616197
-0.20066248 0.7571227 0.46408343 -0.6617856 -0.5717169 -0.09790084 0.11197542 0.7935757
0.7435068 -0.05286038 0.86543524 1.2888533 1.7223186 1.2929969 1.3021609 0.53385293
2.1528265 1.5899104 2.663239 2.4271467 1.7197793 2.1421118 -0.065726705 -0.41784236
0.8475194 0.41848633 0.32977164 0.19643842 -0.026774049 -0.028918698 -0.1526348 -0.13570309
0.053490877 -0.1292306 0.12205775 -0.08167406 -0.013682306 0.08733989 0.057488978 -0.122163236
-0.122979425 -0.13993403 -0.0818429 0.005565271 0.15248512 0.10863723 -0.14519845 -0.14547393
-0.13779458 0.056888714 0.07991199 0.09581299 0.077555075 0.14079411 -0.13852847 -0.12816177
-0.12999406 -0.07951969 0.11069639 0.05643882 -0.062920496 0.029685006 -0.06897752 0.10072772
-0.13354638 -0.16530417 0.1234317 0.06111081 0.057357445 -0.12924443 0.0054175705 -0.034735575
0.105440035 -0.07033849 -0.13974749 -0.14957717 -0.057401203 0.10698821 0.09532209 -0.0833153
-0.09137543 0.0067811757 0.04287426 0.15544371 0.017206132 -0.15119746 0.023903236 -0.11301522
0.0069245547 -0.075406656 0.007012978 -0.04424777 -0.055731773 0.028505027 -0.12395829 -0.09320027
0.052497327 0.10002889 -0.12932804 0.10433282 0.12191135 -0.1232171 -0.12371107 0.07944605
0.120914586 0.040951222 -0.017465068 -0.15157078 -0.15558667 -0.091264494 -0.031093212 -0.016438613
-0.12225082 -0.093664676 0.04730574 0.020114234 -0.08088042 -0.14023617 0.09689369 0.060791276
0.1394562 0.122457735 0.15256412 -0.090266235 0.03376043 -0.11770725 0.07660975 0.06364009
-0.14266728 0.0826783 -0.16275306 -0.13725765 0.080795445 -0.16295171 -0.12508962 -0.08372416
0.17019443 0.06448138 -0.073310144 -0.041967846 -0.26413462 -0.18432558 0.07728009 0.18077442
-0.13230774 -0.1973585 -0.101889394 -0.01864268 0.0951214 -0.054906737 -0.21441723 -0.20839128
0.036587045 -0.14609498 0.22449768 0.18677662 -0.21882007 0.03812708 0.09582037 -0.019087162
0.26723835 0.1850585 0.051104184 -0.1431019 -0.049830247 -0.118422784 0.20930845 0.032492846
0.05519461 0.1682492 0.1215631 0.15709114 -0.099549234 0.073792815 -0.103797056 0.082326695
00000000: cc3c c1bd d5c2 87bd 8e84 e5bc 667c 2ebe
00000010: c9c9 c7bd d6d9 683e 2d13 28bf a7fe 9ebe
00000020: 7472 36bf 0c52 03bf 8b01 cbbe 4af9 e3be
00000030: bc33 3bbe 5f7d 803e 6dde 5fbe 42f3 c03b
00000040: 2fcd 943e b5de c0bd 73e1 173f d04b 643f
00000050: 7b97 443f f88d 643f 2c21 433f 2b5a 233f
00000060: ab80 4b3f da55 423f 2c99 3b3f 0054 763f
00000070: 9909 2b3f 14f1 2a3f 104c ba3e 9360 1b3e
00000080: f9e3 033f 9e44 fb3e c5f8 e43d f153 0b3e
00000090: 0569 123e da42 863d ce30 84bd e268 b93d
000000a0: 7ccc 23be 919c 083e 7466 6f3d 568d d33d
000000b0: 53b6 c0bd 4bf9 a8bd 4e40 ef3d 9037 513d
000000c0: 904b 4e3d 680f b7bc 54da 723d 389b c13c
000000d0: a7a8 13be 401c 7ebd 44bb 09bd 6ece ddbd
000000e0: 23e4 b4bd c468 1dbe 2395 e8bd c349 bcbd
000000f0: d0d1 3a3d 6043 84bb ccae 02be 2732 1dbe
00000100: 7294 bc3d 58f7 e73c e6b9 57bd a053 05bd
00000110: dc10 283d b0a3 44bc 1c8d 673d d65e c7bd
00000120: a795 f53d dc13 743f ceb9 203f c9f1 5a3f
00000130: 1441 563f 7dbd 013f e27d 9dbe cffa 9b3d
00000140: 777a 4dbe cbd2 413f 589c ed3e c86a 29bf
00000150: 0a5c 12bf 3c80 c8bd 5e53 e53d c727 4b3f
00000160: 7656 3e3f 2084 58bd 2a8d 5d3f 25f9 a43f
00000170: f074 dc3f ec80 a53f 35ad a63f 96aa 083f
00000180: e9c7 0940 2f82 cb3f 8272 2a40 5f56 1b40
00000190: ba21 dc3f 5c18 0940 b99b 86bd 6fef d5be
000001a0: 08f7 583f d743 d63e d4d7 a83e 2727 493e
000001b0: 4055 dbbc e8e6 ecbc 4c4c 1cbe c0f5 0abe
000001c0: 4019 5b3d 0755 04be 6af9 f93d bb44 a7bd
000001d0: c02b 60bc 42df b23d 9079 6b3d b830 fabd
000001e0: a3dc fbbd de4a 0fbe 409d a7bd e05c b63b
000001f0: 0f25 1c3e 327d de3d e7ae 14be 1ef7 14be
00000200: 061a 0dbe 2404 693d e6a8 a33d 9a39 c43d
00000210: 32d5 9e3d 552c 103e 68da 0dbe d73c 03be
00000220: 2a1d 05be 38db a2bd cab4 e23d 642c 673d
00000230: 76dc 80bd f82d f33c 1644 8dbd 564a ce3d
00000240: 62c0 08be 7f45 29be c2c9 fc3d 544f 7a3d
00000250: a4ef 6a3d a758 04be e085 b13b e446 0ebd
00000260: f2f0 d73d a00d 90bd f719 0fbe c22a 19be
00000270: 861d 6bbd a21c db3d 3a38 c33d 36a1 aabd
00000280: 0b23 bbbd a034 de3b ec9c 2f3d a32c 1f3e
00000290: e0f3 8c3c 82d3 1abe b8d0 c33c 8674 e7bd
000002a0: 60e7 e23b ce6e 9abd 20cd e53b 263d 35bd
000002b0: 0047 64bd 6083 e93c d8dd fdbd c8df bebd
000002c0: 7007 573d f2db cc3d 926e 04be 72ac d53d
000002d0: a8ac f93d 3f59 fcbd 3b5c fdbd 9cb4 a23d
000002e0: 11a2 f73d 78bc 273d e712 8fbc 5f35 1bbe
000002f0: 1d52 1fbe e1e8 babd 31b7 febc 45aa 86bc
00000300: a35e fabd 44d3 bfbd aac3 413d 9bc6 a43c
00000310: a2a4 a5bd 129a 0fbe 3370 c63d 4600 793d
00000320: 9bcd 0e3e 1fcb fa3d c539 1c3e 81dd b8bd
00000330: 6048 0a3d 8010 f1bd 93e5 9c3d bc55 823d
00000340: 5f17 12be 3e53 a93d bda8 26be 458d 0cbe
00000350: 1578 a53d d0dc 26be 7e17 00be 9377 abbd
00000360: 7347 2e3e d00e 843d a123 96bd 7ae6 2bbd
00000370: a73c 87be d8bf 3cbe 0645 9e3d ee1c 393e
00000380: ae7b 07be 5918 4abe 63ab d0bd 89b8 98bc
00000390: 02cf c23d e3e5 60bd 3190 5bbe 8664 55be
000003a0: 4cdc 153d ec99 15be b8e2 653e 5f42 3f3e
000003b0: 5e12 60be 242b 1c3d 783d c43d ae5c 9cbc
000003c0: 77d3 883e fa7f 3d3e 9f52 513d 4e89 12be
000003d0: cd1a 4cbd a587 f2bd f454 563e 3817 053d
000003e0: be13 623d 8549 2c3e 13f6 f83d 80dc 203e
000003f0: 78e0 cbbd b020 973d 8d93 d4bd e69a a83d

bias f4 [8]
0.06392069 -0.14376438 -4.1885605 -0.16188598 -0.05352901 0.01929068 -0.1336329 -0.053164653
00000000: dae8 823d f836 13be b008 86c0 70c5 25be
00000010: 3c41 5bbd 7d07 9e3c 10d7 08be 2ec3 59bd

weight f4 [8, 8, 3, 3]
-0.0099660205 -0.011061788 -0.09198982 -0.104714856 0.051754784 -0.09090132 0.034033313 -0.025279142
-0.032741554 -0.10374685 0.05388301 -0.100258484 0.07861254 -0.025046676 -0.025662571 -0.022790208
-0.093253165 0.0361607 0.07549812 0.020191722 0.05493385 -0.0904516 -0.116934955 0.0036099793
-0.097023875 -0.047172733 0.017751096 -0.037248433 -0.00068853796 0.038796715 0.040656768 -0.014565572
-0.021244988 0.07982109 0.07670186 0.087816514 0.10004049 -0.045619495 0.020623721 0.035804905
0.06731088 0.0206336 0.08884742 -0.041999586 -0.08452677 0.016266473 0.022085674 -0.08819432
-0.0948868 -0.05868374 0.018077977 -0.105164595 0.106678404 -0.06508313 0.057664145 -0.07650458
0.020089589 0.051159885 -0.06456847 -0.020174444 0.043308817 -0.087981634 0.01031322 0.07742614
0.012664193 0.08100688 -0.0747339 -0.09015489 0.008483389 -0.055692542 -0.046109136 -0.10718368
0.0062649227 -0.054403935 0.09808977 0.091210224 0.047866087 -0.028948627 0.09105274 -0.13524325
0.094176024 0.09543527 -0.009989351 0.06976587 -0.08122108 0.100043334 0.0786436 0.04496003
-0.06267867 -0.11597442 0.13618822 0.008165525 0.21864848 0.21019505 0.19773357 0.16188405
0.15402964 -0.009848254 -0.018551763 -0.081777155 -0.07155047 -0.08392069 -0.012969881 0.09287346
-0.031121328 0.033547096 0.099624924 -0.030995801 -0.11019881 -0.05855432 -0.010716528 0.109405674
0.09696787 0.015704133 0.10587964 0.07713113 0.106172316 0.06289702 0.061866645 -0.023283282
-0.03426619 -0.0052526975 0.08543845 -0.084080055 0.09968857 -0.051000327 0.0373669 0.05184624
-0.028344423 0.03942883 -0.028289136 -0.10113505 -0.04948311 0.013503574 -0.054949176 0.06844659
0.0459791 0.091428496 0.009377367 0.09294645 0.045071524 -0.10013897 -0.039291997 0.014889214
-0.02482509 -0.03554168 0.16546696 -0.10607747 0.0696176 0.02694532 -0.006648237 0.04286207
0.09194636 0.10974305 -0.092827715 -0.105343044 -0.01887767 0.0024396256 0.01706732 -0.101526015
-0.10276697 -0.100633554 -0.34319085 -0.16346966 0.31519866 -0.35041064 0.12408186 0.25065815
-0.09771346 0.063693896 0.20870043 -0.108304195 0.034344308 0.112688296 0.021706723 0.047004722
0.04619599 -0.08567014 -0.098872304 0.039321147 0.018349983 -0.1103426 0.09943219 0.06751511
-0.11075141 0.094618626 -0.08112703 0.02099485 0.005105585 -0.05129448 0.014273895 0.005566961
0.013478152 -0.07964261 -0.021106057 -0.09435883 -0.020146169 -0.07146771 -0.10778537 -0.11832684
0.08168461 -0.032807402 -0.0142740095 0.065258294 0.03162361 -0.073038995 -0.07030914 -0.042770196
0.11275254 0.005633718 0.00857563 -0.0815335 -0.048917502 -0.07240803 -0.058605313 0.1143907
0.4995454 0.15469019 -0.07993094 0.40932867 -0.03813246 -0.3804536 0.22240916 0.23154202
0.3034588 0.0335652 0.070707746 0.06857415 -0.11576249 -0.08485147 0.087442346 0.0524861
-0.058653113 -0.03373626 1.0914154 0.28214842 -0.16760702 1.1825149 -0.17157142 -1.5687422
0.74142325 -0.1901789 -0.7753757 0.088068046 -0.029539391 -0.00017375499 -0.05551871 -0.041715153
0.09766347 -0.014507651 0.08631585 -0.08618748 0.0995852 -0.09357935 -0.04517757 -0.10125053
00000000: 8548 23bc 803c 35bc 2965 bcbd be74 d6bd
00000010: d3fc 533d 792a babd 8466 0b3d 3416 cfbc
00000020: 021c 06bd 3a79 d4bd 6eb4 5c3d 5254 cdbd
00000030: 9dff a03d b02e cdbc 503a d2bc 88b2 babc
00000040: 84fb bebd 3e1d 143d c29e 9a3d 1c69 a53c
00000050: 5102 613d b03e b9bd 987b efbd 6795 6c3b
00000060: 74b4 c6bd 3238 41bd bf6a 913c d091 18bd
00000070: 007f 34ba 4ee9 1e3d b687 263d 70a4 6ebc
00000080: f809 aebc 3d79 a33d dd15 9d3d 25d9 b33d
00000090: 07e2 cc3d 82db 3abd 14f3 a83c 2aa8 123d
000000a0: 49da 893d cc07 a93c a3f5 b53d c207 2cbd
000000b0: 5f1c adbd 4441 853c 04ed b43c 399f b4bd
000000c0: 0354 c2bd 5d5e 70bd 4418 943c 8960 d7bd
000000d0: 357a da3d 4e4a 85bd 3d31 6c3d 6fae 9cbd
000000e0: ec92 a43c 078d 513d 793c 84bd e044 a5bc
000000f0: 9664 313d b72f b4bd c8f8 283c 9991 9e3d
00000100: 7a7d 4f3c efe6 a53d 160e 99bd 21a3 b8bd
00000110: eafd 0a3c dd1d 64bd efdc 3cbd 1e83 dbbd
00000120: fb49 cd3b a9d6 5ebd 4ae3 c83d 6dcc ba3d
00000130: 3b0f 443d ac25 edbc dc79 ba3d 357d 0abe
00000140: 5cdf c03d 9173 c33d 60aa 23bc 69e1 8e3d
00000150: 3d57 a6bd 85e3 cc3d e50f a13d 0228 383d
00000160: ad5d 80bd ff83 edbd ed74 0b3e b2c8 053c
00000170: 63e5 5f3e 5f3d 573e ab7a 4a3e efc4 253e
00000180: f2b9 1d3e 925a 21bc def9 97bc c87a a7bd
00000190: 0e89 92bd 9cde abbd a07f 54bc 7134 be3d
000001a0: 28f2 febc ae68 093d 2708 cc3d e8ea fdbc
000001b0: eaaf e1bd a8d6 6fbd 6094 2fbc 1510 e03d
000001c0: 1797 c63d f4a5 803c 6dd7 d83d edf6 9d3d
000001d0: df70 d93d 27d0 803d e167 7d3d 95bc bebc
000001e0: b45a 0cbd d21e acbb 5bfa ae3d 2a32 acbd
000001f0: 8529 cc3d b8e5 50bd 090e 193d b95c 543d
00000200: 9032 e8bc 2080 213d 9ebe e7bc e51f cfbd
00000210: cdae 4abd 183e 5d3c 6312 61bd ba2d 8c3d
00000220: 9554 3c3d dd3e bb3d 87a3 193c b55a be3d
00000230: eb9c 383d a915 cdbd a5f0 20bd e4f1 733c
00000240: fd5d cbbc 2794 11bd 2c70 293e 253f d9bd
00000250: ac93 8e3d 6fbc dc3c 74d9 d9bb 2390 2f3d
00000260: 604e bc3d f7c0 e03d 751c bebd 18be d7bd
00000270: 58a5 9abc 20e2 1f3b c4d0 8b3c dfec cfbd
00000280: 7d77 d2bd f718 cebd b6b6 afbe 9764 27be
00000290: b861 a13e 0669 b3be a11e fe3d 4456 803e
000002a0: ff1d c8bd f271 823d 91b5 553e 97ce ddbd
000002b0: 9eac 0c3d 1fc9 e63d 4cd2 b13c 0688 403d
000002c0: 0238 3d3d d473 afbd 907d cabd 360f 213d
000002d0: b452 963c 4dfb e1bd 1ba3 cb3d 5d45 8a3d
000002e0: a3d1 e2bd 69c7 c13d ee25 a6bd 64fd ab3c
000002f0: c04c a73b 291a 52bd 0edd 693c 0e6b b63b
00000300: 78d3 5c3c aa1b a3bd 9ce6 acbc 343f c1bd
00000310: 9409 a5bc aa5d 92bd 93be dcbd 5855 f2bd
00000320: 434a a73d 0e61 06bd 89dd 69bc 24a6 853d
00000330: c287 013d 7895 95bd 3dfe 8fbd cd2f 2fbd
00000340: ceea e63d 0d9b b83b cd80 0c3c 09fb a6bd
00000350: b85d 48bd a94a 94bd 200c 70bd ac45 ea3d
00000360: 6ac4 ff3e 1b67 1e3e d5b2 a3bd 8793 d13e
00000370: c830 1cbd d0ca c2be 3abf 633e 5a19 6d3e
00000380: f45e 9b3e aa7b 093d 39cf 903d 9b70 8c3d
00000390: e214 edbd 9cc6 adbd f914 b33d aafb 563d
000003a0: 3f3e 70bd 082f 0abd 80b3 8b3f c275 903e
000003b0: 2da1 2bbe a65c 973f 6bb0 2fbe 8bcc c8bf
000003c0: eacd 3d3f 42be 42be 067f 46bf 055d b43d
000003d0: 98fc f1bc 0032 36b9 9667 63bd 82dd 2abd
000003e0: c903 c83d 80b1 6dbc 5dc6 b03d 1083 b0bd
000003f0: 53f3 cb3d 88a6 bfbd 1e0c 39bd 705c cfbd

bias f4 [8]
0.036245786 -0.10341334 -0.07619653 0.034574844 0.03898958 -0.007157417 0.015223402 -0.19641292
00000000: 7676 143d 60ca d3bd ed0c 9cbd 5a9e 0d3d
00000010: 8ab3 1f3d c488 eabb 936b 793c 7820 49be

weight f4 [128, 192]
0.015868247 0.053510144 -0.022228688 -0.0041798577 0.03560374 -0.03036667 0.015866274 -0.010246375
-0.0023819536 -0.06982359 -0.062203936 -0.04453919 -0.071566276 -0.023935072 -0.042696796 -0.024681628
0.017409772 0.0525225 -0.03634784 0.017688794 -0.038547147 -0.054045122 0.06614323 -0.05222235
0.034348983 0.029487612 0.02516337 -0.06018242 -0.05969416 -0.008099336 -0.036299393 0.033639316
-0.06262265 -0.037266318 -0.031533945 0.034217574 0.011606293 0.05352829 0.020983128 0.051408697
0.007620566 -0.059710704 0.008911343 0.05224619 -0.029457152 0.04478094 -0.033958435 0.04611535
-0.009045584 -0.06816863 -0.0029868267 -0.045478713 -0.017787877 0.051539317 0.005770445 -0.009859219
0.0075612282 -0.051577497 0.05233202 -0.052985545 -0.005158373 0.052978396 -0.051039968 -0.031611297
0.074159555 -0.051493857 -0.042207558 1.6718537e-06 -0.02176789 -0.016812468 0.06859898 -0.04646231
0.02937534 -0.05242628 0.046753004 -0.0023373133 -0.04367101 -0.036945872 -0.018343545 -0.001685498
-0.03438472 0.1516971 -0.05399378 0.06529995 -0.041887946 0.022960728 0.02068829 0.0627927
0.037092347 0.06209569 0.041522726 0.059242863 0.10865477 0.12348461 -0.06420402 0.00040800453
0.063584566 -0.06279192 -0.03196567 0.017338159 -0.03256297 -0.06986032 -0.060725104 0.0871748
0.0065566064 -0.010065836 0.07660752 0.09208827 -0.052347913 -0.04220572 0.010170396 -0.06375114
0.013802338 -0.037738733 0.057657044 -0.077973366 0.004456732 0.02816133 -0.018070024 -0.078520976
-0.11696656 -0.027418032 0.11778461 0.09546419 0.0026731475 0.0062515456 0.036962636 -0.10591812
0.002579472 -0.07338819 -0.11075224 -0.053234056 -0.0088980645 -0.009468443 0.085545935 0.16822527
-0.047997914 0.051861234 -0.03966064 0.0043128924 0.08237921 -0.04989339 -0.11328197 0.014359998
-0.023778856 -0.15019038 -0.06724138 -0.0065982854 -0.106020406 -0.003671806 0.048458368 0.08222435
0.029505879 0.059838947 -0.046735443 0.072368495 0.06388912 0.046375122 -0.056008942 -0.088281535
-0.06758735 0.038299985 -0.0042563053 0.06292255 0.033904888 -0.021673135 0.0018692137 0.008531737
0.0020048763 0.07554622 0.14438233 -0.099821016 0.053739548 0.09459469 0.027521126 0.067763336
-0.07376992 -0.3793897 -0.25592113 -0.019942734 0.026905032 0.19348033 0.12621805 0.25639933
0.059874207 0.107363686 0.13200797 0.02888223 -0.18714085 -0.37423885 -0.059522115 -0.0440701
0.0052273497 -0.00843282 0.0013995096 -0.02520239 -0.039143883 -0.029624343 0.07075037 0.023977127
-0.017714923 -0.027324747 0.0132737765 0.01509163 0.03690768 0.02611474 -0.019415736 -0.017593876
-0.017176714 -0.06294674 0.024704635 -0.005273804 -0.038231626 -0.038156778 0.060753856 -0.05325741
0.047991026 -0.065368235 -0.0014542391 0.017824208 -0.050190117 0.06760074 -0.04259282 0.054771412
0.03178942 0.04739507 0.06764291 -0.0584977 0.06561416 0.013481447 -0.053748116 -0.025439931
-0.03941447 -0.031815756 0.040928833 0.067395575 -0.0076494035 -0.052165035 0.016117213 0.05316398
0.016512841 -0.014202468 -0.029588243 0.06648821 0.040268365 -0.006723478 -0.037151907 0.047828212
0.04094834 -0.02768509 0.066600434 0.050847325 0.003280333 0.0007110571 0.07351416 0.06329575
00000000: 20fe 813c 742d 5b3d f018 b6bc 30f7 88bb
00000010: 3ad5 113d 86c3 f8bc fdf9 813c 69e0 27bc
00000020: 8d1a 1cbb acff 8ebd 8ec9 7ebd ba6e 36bd
00000030: 5791 92bd 7c13 c4bc d6e2 2ebd 2031 cabc
00000040: f09e 8e3c d521 573d 79e1 14bd 17e8 903c
00000050: 9de3 1dbd 6b5e 5dbd 1a76 873d 1ae7 55bd
00000060: 85b1 0c3d 0190 f13c 6923 ce3c d781 76bd
00000070: dd81 74bd 14b3 04bc acae 14bd 61c9 093d
00000080: 4e40 80bd 91a4 18bd bd29 01bd ba27 0c3d
00000090: 5228 3e3c 7b40 5b3d cfe4 ab3c ed91 523d
000000a0: f1b5 f93b 3693 74bd e200 123c 1a00 563d
000000b0: 2050 f1bc 386c 373d 0018 0bbd 73e3 3c3d
000000c0: ee33 14bc ff9b 8bbd a3be 43bb e347 3abd
000000d0: e2b7 91bc e41a 533d 0016 bd3b 9088 21bc
000000e0: 2ec4 f73b ed42 53bd 1a5a 563d 5f07 59bd
000000f0: 9207 a9bb e0ff 583d 490f 51bd d97a 01bd
00000100: f7e0 973d 39eb 52bd d5e1 2cbd 7564 e035
00000110: 9352 b2bc 4dba 89bc 9f7d 8c3d 434f 3ebd
00000120: 8ea4 f03c f0bc 56bd 1480 3f3d 9c2d 19bb
00000130: 5fe0 32bd 8e54 17bd 3445 96bc eeeb dcba
00000140: fed6 0cbd 7c56 1b3e 9528 5dbd fbbb 853d
00000150: b292 2bbd 2318 bc3c 7d7a a93c 7699 803d
00000160: 25ee 173d 0d58 7e3d bc13 2a3d a5a8 723d
00000170: 6486 de3d 80e5 fc3d 667d 83bd 71e9 d539
00000180: a038 823d 0d99 80bd 6fee 02bd c108 8e3c
00000190: c060 05bd ed12 8fbd e3ba 78bd b488 b23d
000001a0: cdd8 d63b 2deb 24bc 67e4 9c3d c698 bc3d
000001b0: c46a 56bd e8df 2cbd bca1 263c f58f 82bd
000001c0: 3423 623c ee93 1abd cb29 6c3d 80b0 9fbd
000001d0: c709 923b 97b2 e63c 9607 94bc 9bcf a0bd
000001e0: 2a8c efbd c89b e0bc 0f39 f13d bb82 c33d
000001f0: f92f 2f3b c4d9 cc3b 2266 173d 99eb d8bd
00000200: 5c0c 293b 8c4c 96bd 12d2 e2bd f40b 5abd
00000210: 30c9 11bc 8721 1bbc b532 af3d 3f43 2c3e
00000220: 7699 44bd 726c 543d 3273 22bd 2a53 8d3b
00000230: 6eb6 a83d 035d 4cbd 6100 e8bd 3246 6b3c
00000240: e0cb c2bc 82cb 19be d9b5 89bd 6e36 d8bb
00000250: 3a21 d9bd afa2 70bb 487c 463d 3d65 a83d
00000260: 50b6 f13c af19 753d aa6d 3fbd ef35 943d
00000270: 4dd8 823d d7f3 3d3d a269 65bd f3cc b4bd
00000280: 3d6b 8abd 72e0 1c3d 7a78 8bbb 8add 803d
00000290: dadf 0a3d dc8b b1bc 6700 f53a b3c8 0b3c
000002a0: 3e64 033b fab7 9a3d f6d8 133e f66e ccbd
000002b0: 001e 5c3d dcba c13d fc73 e13c 81c7 8a3d
000002c0: af14 97bd 5e3f c2be 1808 83be f25e a3bc
000002d0: f167 dc3c b51f 463e 4e3f 013e c646 833e
000002e0: a83e 753d 7ee1 db3d 192d 073e 6d9a ec3c
000002f0: daa1 3fbe 3c9c bfbe 76cd 73bd d982 34bd
00000300: 304a ab3b d029 0abc c06f b73a 3e75 cebc
00000310: 5655 20bd c0ae f2bc 92e5 903d ae6b c43c
00000320: e31e 91bc 26d8 dfbc 417a 593c e242 773c
00000330: 822c 173d 94ee d53c c00d 9fbc 0821 90bc
00000340: 2eb6 8cbc 38ea 80bd 6061 ca3c e0cf acbb
00000350: c498 1cbd 484a 1cbd 09d9 783d 7124 5abd
00000360: 3d92 443d c8df 85bd 2b9c beba 1304 923c
00000370: 2794 4dbd 4272 8a3d cf75 2ebd fd57 603d
00000380: 9f35 023d 5521 423d 5e88 8a3d 499b 6fbd
00000390: b760 863d 49e1 5c3c fc26 5cbd 6767 d0bc
000003a0: 1171 21bd 3d51 02bd fea4 273d b106 8a3d
000003b0: d9a7 fabb 01ab 55bd 3f08 843c 79c2 593d
000003c0: f045 873c 78b1 68bc 0b63 f2bc f82a 883d
000003d0: 71f0 243d 9f50 dcbb 992c 18bd 84e7 433d
000003e0: 72b9 273d d8cb e2bc cf65 883d 4945 503d
000003f0: dbfa 563b 3c66 3a3a 988e 963d 34a1 813d

bias f4 [128]
-0.015497565 0.026547536 -0.031948976 -0.024157694 0.06536626 0.10112228 -0.043795947 -0.014753282
0.033188105 0.042857565 0.09910817 0.037555236 0.01931838 -0.03552076 0.034537107 0.05929866
0.076006204 -0.033067312 -0.0155179985 -0.022743318 0.079206705 0.012900953 0.081494324 0.092081584
0.011223141 -0.02007948 0.075832345 -0.04888361 0.036222678 0.066520765 -0.047405627 -0.06773776
0.03215861 0.032829966 0.023517085 -0.0128111085 -0.044086106 0.03985116 -0.020458288 0.02318139
-0.08591777 -0.017914146 0.021271138 -0.046315305 -0.017909817 -0.055803627 0.0013566366 -0.06417969
-0.11101708 -0.015724063 -0.034949444 0.019028869 0.11130369 0.09576116 -0.007543878 -0.053308167
0.026177391 0.08045189 -0.054024097 -0.0066225394 -0.021085147 0.03635798 0.028095135 -0.008067159
-0.05055359 -0.009344306 -0.037326165 -0.03365101 0.017689131 -0.01421059 0.11166064 0.09460592
-0.028191406 0.029433923 0.01333985 0.08489032 0.0010699979 0.0730734 -0.019282533 -0.05761532
0.07060392 -0.024258463 -0.010181302 0.051503666 0.052271176 -0.02518876 0.015784744 -0.04595071
-0.02926878 0.061699294 0.09068296 0.043174185 0.08317352 -0.054264806 0.05509605 -0.0015083726
-0.015304151 0.007869605 -0.0720263 0.054365207 -0.025575638 -0.066685416 0.038081877 -0.0067972797
-0.017351503 -0.011849867 -0.049018368 0.0028822992 0.05360225 0.008202231 0.039203413 0.05028696
-0.0077246176 0.0012758776 0.061468817 0.038722243 0.04525909 -0.05828058 0.00665805 -0.0013282237
0.0071130884 0.06320787 0.056586005 0.0987904 0.04192196 -0.0050931755 -0.009221895 -0.022534814
00000000: 80e9 7dbc 387a d93c eedc 02bd 5be6 c5bc
00000010: bfde 853d 3319 cf3d 6163 33bd c0b7 71bc
00000020: 40f0 073d 6a8b 2f3d 39f9 ca3d 85d3 193d
00000030: 9441 9e3c 377e 11bd c876 0d3d 27e3 723d
00000040: 24a9 9b3d 9771 07bd 343f 7ebc 3250 babc
00000050: 2037 a23d 855e 533c 7fe6 a63d 4595 bc3d
00000060: 44e1 373c b97d a4bc fd4d 9b3d 2e3a 48bd
00000070: 3b5e 143d 0a3c 883d 672c 42bd 18ba 8abd
00000080: bfb8 033d b778 063d e7a6 c03c afe5 51bc
00000090: a293 34bd f83a 233d 2498 a7bc e6e6 bd3c
000000a0: a8f5 afbd b0c0 92bc cf40 ae3c 1eb5 3dbd
000000b0: 9cb7 92bc 5892 64bd 2cd1 b13a a470 83bd
000000c0: ec5c e3bd c0cf 80bc 2627 0fbd 6ee2 9b3c
000000d0: 30f3 e33d 6d1e c43d a332 f7bb aa59 5abd
000000e0: f871 d63c f6c3 a43d 5f48 5dbd e301 d9bb
000000f0: c2ba acbc 1bec 143d c527 e63c 1e2c 04bc
00000100: 4811 4fbd dc18 19bc 52e3 18bd a4d5 09bd
00000110: cce8 903c 89d3 68bc 55ae e43d c0c0 c13d
00000120: aaf1 e6bc 691f f13c 638f 5a3c fada ad3d
00000130: 2c3f 8c3a 82a7 953d 67f6 9dbc 0bfe 6bbd
00000140: ca98 903d afb9 c6bc 7acf 26bc 82f5 523d
00000150: 4d1a 563d a958 cebc 024f 813c d036 3cbd
00000160: 15c5 efbc 66b8 7c3d fdb7 b93d 6ad7 303d
00000170: e156 aa3d c644 5ebd 65ac 613d 96b4 c5ba
00000180: 43be 7abc 84ef 003c 8682 93bd 0dae 5e3d
00000190: 0084 d1bc 5d92 88bd befb 1b3d b7bb debb
000001a0: bd24 8ebc f225 42bc 7cc7 48bd f5e4 3c3b
000001b0: 088e 5b3d a662 063c c293 203d b3f9 4d3d
000001c0: ca1e fdbb 593b a73a bac6 7b3d 379b 1e3d
000001d0: 9861 393d 9eb7 6ebd c62b da3b cb17 aeba
000001e0: e914 e93b 2173 813d bac6 673d 9f52 ca3d
000001f0: 5cb6 2b3d a7e4 a6bb 6e17 17bc ee9a b8bc

weight f4 [8, 128]
0.07364175 0.033639155 0.09567147 0.10566202 0.10210518 -0.3677288 -0.1546761 -0.08388195
0.013943937 0.07466353 -0.2477177 -0.3440492 0.18113704 -0.020818196 0.4422086 -0.06878201
-0.42424345 0.055084966 -0.38435513 0.20660816 0.108237855 -0.3423377 0.49941036 0.44785395
0.06113804 -0.067713805 -0.30697003 0.5160223 -0.4222133 -0.09605755 -0.055927206 -0.08764249
0.045314327 0.06696768 0.053706907 -0.33834407 -0.36128327 -0.30509803 -0.6910447 -0.05374802
-0.42127413 0.022488322 0.013448643 -0.039154764 0.04784541 0.04699213 -0.07372863 0.074797526
-0.5760764 0.2368104 0.027713418 -0.05299784 -0.3221333 -0.28078425 0.02444438 0.10323351
0.053827517 0.31994638 0.026346426 0.0010261799 0.057109416 -0.45210388 -0.0141462125 -0.07210883
0.19965014 -0.056778807 -0.31406763 0.050246395 -0.37931046 0.1708736 0.4952602 -0.4540066
-0.10993841 -0.17223641 -0.14129148 -0.5460154 -0.17419791 -0.3824327 -0.15799634 -0.18146662
-0.16298571 -0.13255441 -0.050688244 -0.15806715 -0.50865644 -0.061361644 -0.07865956 0.679185
-0.028466284 -0.16632307 0.43027183 0.044551425 0.5050959 -0.10403451 -0.17809214 -0.040831372
0.5583975 0.31362396 -0.047232404 -0.08251139 -0.06750307 -0.022000112 0.5384748 -0.26614296
-0.20771287 -0.32196566 -0.030484946 -0.33016652 0.09054336 0.24217264 0.056211345 -0.070750356
-0.07410408 -0.032352496 -0.15975092 -0.049739685 -0.037895985 0.039164126 -0.010342735 0.021959957
0.033705816 -0.03217104 -0.19824214 -0.34597927 0.087213375 -0.004357343 0.7970926 0.08175947
0.2525337 -0.017411284 -0.15214881 0.08131791 0.14631034 -0.27222624 -0.22730257 0.017364398
-0.0882862 0.07898595 -0.33288604 -0.47361 0.3278635 -0.050031018 0.45148876 -0.20723422
-0.5476087 -0.00031046805 -0.19956289 0.2708166 0.31601128 -0.20672192 -0.15887883 0.64185715
-0.009650047 -0.15147102 -0.24330556 0.48942703 -0.18092719 0.010059909 -0.0014838367 0.06518006
-0.047032315 -0.06908887 0.024332754 -0.22893721 -0.6207962 -0.47405985 -0.7015152 0.044513457
-0.5880722 0.056573637 -0.013500016 0.05153553 -0.063001506 0.097971946 -0.042967256 0.06726139
-0.622204 0.26300642 -0.058306053 0.059246957 -0.29282802 -0.4472056 0.20075123 -0.10698941
0.06309275 0.39480722 0.037794102 0.028560374 0.08939526 -0.5906758 0.08308434 -0.12403601
0.063020706 -0.017558463 -0.26883996 -0.043406364 -0.07489245 0.4097257 0.47184896 -0.5690177
-0.000934883 -0.51974493 -0.10382888 -0.46496055 -0.21172097 -0.46240094 -0.64005935 -0.38680202
-0.23642528 -0.48490587 0.042385764 -0.20079742 -0.37323213 -0.004055978 -0.14073011 0.63923746
-0.042413935 -0.24884747 0.8217457 -0.009028822 0.5151965 -0.12427752 -0.2499506 0.06364544
0.64794874 0.009805088 -0.07666951 -0.041973043 0.026894476 -0.016642466 0.6263009 -0.29090607
-0.11844615 -0.22903715 -0.07284098 -0.08970052 0.17336875 0.41934398 0.2673012 0.025724992
-0.056431215 0.11863108 -0.20210366 -0.022355624 -0.02381909 -0.07084719 0.02302249 -0.1687516
0.086354576 0.021212965 -0.11653391 -0.59339684 -0.017088132 0.10293863 0.3974328 -0.071411245
00000000: 7cd1 963d 36c9 093d 67ef c33d 5465 d83d
00000010: 851c d13d f346 bcbe 6963 1ebe 4dca abbd
00000020: 1c75 643c 31e9 983d b5a9 7dbe 3727 b0be
00000030: fd7b 393e ec8a aabc 2a69 e23e 95dd 8cbd
00000040: 7036 d9be c6a0 613d 32ca c4be 1791 533e
00000050: cfab dd3d e346 afbe b7b2 ff3e 1d4d e53e
00000060: e26b 7a3d 89ad 8abd 2d2b 9dbe 0a1a 043f
00000070: 572c d8be d2b9 c4bd ed13 65bd e87d b3bd
00000080: 849b 393d 5a26 893d c6fb 5b3d 6f3b adbe
00000090: 1ffa b8be cf35 9cbe 4ee8 30bf e226 5cbd
000000a0: 3eb1 d7be 6e39 b83c b257 5c3c bf60 20bd
000000b0: 8cf9 433d d27a 403d 09ff 96bd 722f 993d
000000c0: be79 13bf 6d7e 723e 4007 e33c 4314 59bd
000000d0: a8ee a4be f4c2 8fbe 953f c83c 176c d33d
000000e0: 3e7a 5c3d 03d0 a33e 76d4 d73c e280 863a
000000f0: 90eb 693d 297a e7be 84c5 67bc cbad 93bd
00000100: 1671 4c3e e590 68bd 79cd a0be 2acf 4d3d
00000110: fb34 c2be 7df9 2e3e bf92 fd3e 8e73 e8be
00000120: 6427 e1bd be5e 30be b7ae 10be aac7 0bbf
00000130: f060 32be 38ce c3be cbc9 21be 63d2 39be
00000140: bae5 26be 58bc 07be 7a9e 4fbd 5bdc 21be
00000150: 4f37 02bf 5956 7bbd 4318 a1bd 11df 2d3f
00000160: 2032 e9bc 9850 2abe 974c dc3e 8e7b 363d
00000170: f74d 013f 0c10 d5bd c95d 36be cc3e 27bd
00000180: 23f3 0e3f 5293 a03e c476 41bd bbfb a8bd
00000190: 0d3f 8abd 9439 b4bc 7cd9 093f e443 88be
000001a0: afb2 54be afd8 a4be 91bb f9bc 960b a9be
000001b0: cc6e b93d 1bfc 773e de3d 663d 90e5 90bd
000001c0: e1c3 97bd 0d84 04bd bf95 23be d7bb 4bbd
000001d0: d238 1bbd 906a 203d 9374 29bc 5ee5 b33c
000001e0: 1c0f 0a3d c8c5 03bd fdff 4abe 3224 b1be
000001f0: ed9c b23d 0bc8 8ebb 430e 4c3f 8271 a73d
00000200: 194c 813e 1ca2 8ebc e6cc 1bbe 018a a63d
00000210: 61d2 153e 3d61 8bbe 01c2 68be c83f 8e3c
00000220: 65cf b4bd 63c3 a13d 0a70 aabe 037d f2be
00000230: badd a73e 53ed 4cbd 8929 e73e 3535 54be
00000240: 1530 0cbf 51c6 a2b9 375a 4cbe 79a8 8a3e
00000250: 3bcc a13e e9ae 53be 22b1 22be c050 243f
00000260: 3b1b 1ebc 381b 1bbe 1825 79be 2e96 fa3e
00000270: fa44 39be 51d2 243c 4c7d c2ba 207d 853d
00000280: f5a4 40bd 777e 8dbd 7c55 c73c 846e 6abe
00000290: 80ec 1ebf f9b7 f2be 8096 33bf be53 363d
000002a0: e68b 16bf c2b9 673d 2c2f 5dbc eb16 533d
000002b0: ef06 81bd 84a5 c83d 6ffe 2fbd 57c0 893d
000002c0: c348 1fbf c7a8 863e 54d2 6ebd f0ac 723d
000002d0: 8eed 95be 22f8 e4be bb91 4d3e 441d dbbd
000002e0: c636 813d 2c24 ca3e fdcd 1a3d 72f7 e93c
000002f0: dd14 b73d 8736 17bf 1f28 aa3d 9706 febd
00000300: 0011 813d c4d6 8fbc 64a5 89be dfca 31bd
00000310: 3661 99bd 91c7 d13e 3096 f13e 25ab 11bf
00000320: f012 75ba 010e 05bf 3ca4 d4bd 4f0f eebe
00000330: 62cd 58be d1bf ecbe eeda 23bf ea0a c6be
00000340: 7819 72be 9545 f8be b29c 2d3d d79d 4dbe
00000350: 4818 bfbe 02e8 84bb 8e1b 10be 11a5 233f
00000360: 3cba 2dbd dfd1 7ebe ed5d 523f a0ed 13bc
00000370: ebe3 033f 3685 febd 0df3 7fbe 8a58 823d
00000380: f8df 253f 85a5 203c e704 9dbd edeb 2bbd
00000390: ce51 dc3c c855 88bc 4155 203f a4f1 94be
000003a0: e593 f2bd b788 6abe a72d 95bd e8b4 b7bd
000003b0: 9487 313e 41b4 d63e b4db 883e 38bd d23c
000003c0: 6b24 67bd daf4 f23d 43f4 4ebe 2423 b7bc
000003d0: 4120 c3bc 5518 91bd a999 bc3c 38cd 2cbe
000003e0: abda b03d d0c6 ad3c 55a9 eebd dbe8 17bf
000003f0: 69fc 8bbc 7dd1 d23d 507c cb3e 0f40 92bd

bias f4 [8]
-0.13525133 -0.016311849 -0.15134321 -0.075991236 -0.22618312 -0.10819132 -0.23461288 -0.074543
00000000: 537f 0abe 6da0 85bc b7f9 1abe 4ba1 9bbd
00000010: 8c9c 67be 6993 ddbd 5c3e 70be 00aa 98bd
